project4/q_network.pth (torch, 38693 bytes, 6 tensors)

fc1.weight f4 [128, 4]
0	0x3e803f9a	0.25048524
1	0xbd30d5b9	-0.04317257
2	0x3dcdd62c	0.10050616
3	0x3e5db0bb	0.21649449
4	0xbed1169a	-0.40837556
5	0x3eb579b0	0.35444403
6	0xbd919e7a	-0.07110305
7	0x3e3db4f5	0.18526061
8	0x3de43aeb	0.1114405
9	0xbd2ae9c6	-0.04172685
10	0x3e019a18	0.12656438
11	0xbc9a2a5d	-0.018819029
12	0x3e3aff30	0.18261409
13	0xbe4786e4	-0.1948505
14	0xbd155130	-0.03645438
15	0xbd386040	-0.045013666
16	0xbd744ada	-0.059641697
17	0xbf06157f	-0.5237655
18	0x3fb7e04d	1.4365326
19	0x3efca472	0.49344212
20	0xbd00145d	-0.03126942
21	0xbec9aefc	-0.39391315
22	0xbea35a46	-0.3190481
23	0xbf1a1720	-0.60191536
24	0xbba6de44	-0.005092414
25	0x3e8229af	0.25422427
26	0x3fadce3b	1.3578562
27	0x3f248de1	0.6427899
28	0xbf07d374	-0.53057027
29	0x3f140071	0.57813174
30	0x3f6581e3	0.89651316
31	0x3f808200	1.0039673
32	0x3eba2c11	0.36361745
33	0xbed827ca	-0.42217857
34	0xbee85e22	-0.45384318
35	0xbe8c7b5e	-0.27437872
36	0x3ed172d3	0.40907916
37	0xbde7f74b	-0.11326464
38	0x3e79cd7c	0.24394792
39	0xbe4f3b64	-0.202375
40	0x3f0b82a6	0.5449623
41	0xbe3c4e7e	-0.18389317
42	0x3e45d1da	0.19318333
43	0xbe309138	-0.17242897
44	0xbe86a944	-0.26301014
45	0x3e46698c	0.193762
46	0xbea808c3	-0.32819185
47	0x3e169624	0.14705712
48	0x3d622f0e	0.055220656
49	0xbac494d1	-0.0014997964
50	0xbf9f0d71	-1.2425977
51	0xbee3d2db	-0.44496807
52	0x3f04b6a2	0.51841176
53	0x3ea0e952	0.3142801
54	0x3fdc75aa	1.7223408
55	0x3ec1a953	0.37824497
56	0x3e37bf51	0.17944075
57	0xbe947e8d	-0.290028
58	0x3e8e275a	0.27764398
59	0x3e0800f9	0.13281621
60	0x3e734f56	0.23760733
61	0x3f374d32	0.71602166
62	0x3fa009c6	1.2502983
63	0x3f10b814	0.5653088
64	0xbf11b82a	-0.5692164
65	0xbe0344e2	-0.12819245
66	0x3e9c830b	0.30568728
67	0x3e36b6fc	0.1784324
68	0xbf5d0485	-0.8633502
69	0xbf0ac42a	-0.5420557
70	0xbece90df	-0.40344903
71	0xbe3ad59a	-0.18245545
72	0x3eef48ed	0.46735325
73	0x3dcd1d96	0.10015409
74	0xbe253e22	-0.16136983
75	0x3cceabf0	0.02522847
76	0x3d2118a8	0.039330155
77	0x3e3c10a1	0.18365718
78	0xbf11ceae	-0.56955993
79	0x3e27aa8b	0.1637365
80	0xbd21e6f0	-0.03952688
81	0xbee7f4d0	-0.45303965
82	0xbf3024ed	-0.68806344
83	0xbe65445e	-0.22389361
84	0x3ed5e31e	0.4177484
85	0xbe923280	-0.28554153
86	0xbf1b3273	-0.60623854
87	0x3eaf7146	0.34266108
88	0xbedeea06	-0.4353792
89	0xbea978e6	-0.3310005
90	0xbf9c814a	-1.2226956
91	0xbeda0d73	-0.42588386
92	0x3dfc2b8e	0.12312995
93	0xbda8619e	-0.08221744
94	0xbf9af6ad	-1.210653
95	0xbed02002	-0.4064942
96	0x3e177f8e	0.14794752
97	0x3d770f9f	0.06031763
98	0xbee5b150	-0.4486184
99	0xbe7d838b	-0.24757211
100	0x3f459e52	0.771947
101	0x3d4011c0	0.046891928
102	0x3f87faf3	1.0623459
103	0x3e89fc9b	0.26950535
104	0xbf80662a	-1.0031178
105	0xbedf04cb	-0.43558344
106	0xbd17fad9	-0.03710446
107	0xbebff5b7	-0.37492153
108	0x3eafb7f5	0.34320036
109	0x3de10379	0.109869905
110	0x3e20fc0b	0.15721147
111	0x3e9a6e35	0.30162206
112	0x3eff78dd	0.498969
113	0xbebbaff6	-0.36657685
114	0xbd4c5672	-0.04988713
115	0x3ea0dde8	0.314193
116	0x3f7c5954	0.98573804
117	0x3ed2b555	0.4115397
118	0xbea90976	-0.3301503
119	0xbe962f70	-0.29333067
120	0x3ed763d5	0.42068353
121	0x3e0c884e	0.13723871
122	0xbe9bfd40	-0.30466652
123	0xbf21a852	-0.6314746
124	0x3f48492c	0.7823665
125	0xbe154214	-0.14575988
126	0xbe88bb3e	-0.26705354
127	0xb902a5a8	-0.00012459478
128	0x3f52d900	0.82362366
129	0x3f3af238	0.73025846
130	0x3e83f450	0.25772333
131	0x3ea5aecd	0.32359925
132	0x3e42dedc	0.19030327
133	0x3e9e0cad	0.30869046
134	0x3ebb43ed	0.3657526
135	0x3e752a0b	0.2394182
136	0x3f09c92b	0.5382258
137	0xbd0f91cb	-0.03505115
138	0xbf8975c1	-1.0739061
139	0xbf172791	-0.5904475
140	0xbe40cbc6	-0.18827733
141	0xbcf1e11f	-0.029526291
142	0xbeb7118a	-0.3575557
143	0x3e1079b1	0.14108922
144	0x3e108afc	0.14115518
145	0x3e867414	0.26260436
146	0x3fa3636f	1.276472
147	0x3ef1d658	0.47233844
148	0x3e26225f	0.16224049
149	0x3eab60df	0.33472344
150	0xbd5337b6	-0.051566802
151	0x3ee606c7	0.44927046
152	0x3d32161c	0.043478116
153	0xbdba4987	-0.090960555
154	0xbf911eeb	-1.133756
155	0xbeb84df3	-0.3599697
156	0xbf5d3dac	-0.8642223
157	0xbedcb3e0	-0.43105984
158	0xbea4adc7	-0.32163832
159	0xbeb43bee	-0.35201973
160	0xbec8eac5	-0.39241615
161	0x3e6e88f8	0.23294437
162	0x3eb55171	0.35413697
163	0x3e9c1b01	0.30489352
164	0xbe84790e	-0.25873607
165	0x3dde04c0	0.1084075
166	0xbe3a64d8	-0.18202531
167	0xbde61120	-0.11233735
168	0xbf80ab3b	-1.0052255
169	0xbeb25c72	-0.34836155
170	0xbf3f4e4f	-0.74728864
171	0xbe896794	-0.26836836
172	0x3ec0bcb8	0.3764398
173	0x3ee631fc	0.4496001
174	0x3fcd452d	1.6036736
175	0x3f046089	0.517098
176	0x3eb8d68e	0.36101192
177	0x3d949df4	0.0725669
178	0xbee7f596	-0.45304555
179	0x3e89afce	0.2689194
180	0x3db1b532	0.086771384
181	0x3ce023c4	0.027360804
182	0xbfa2d3dd	-1.2720906
183	0xbe8cf8c2	-0.27533537
184	0xbeabfb1a	-0.33590013
185	0x3e9226d4	0.28545249
186	0xbf6f512f	-0.9348325
187	0xbee3a960	-0.4446516
188	0x3c71c954	0.014757473
189	0xbe74556f	-0.23860715
190	0x3e57a901	0.21060564
191	0xbe24aae5	-0.16080816
192	0x3d80e23b	0.0629315
193	0xbddf841d	-0.109138705
194	0x3e90ac05	0.2825624
195	0xbf179808	-0.59216356
196	0x3e21e25a	0.15809003
197	0x3df8cce2	0.12148453
198	0x3da36e22	0.079799905
199	0xbf01f49a	-0.5076386
200	0xbef5602f	-0.47924945
201	0xbeea9988	-0.4582026
202	0xbd5746f1	-0.05255789
203	0xbedb1ed7	-0.42796966
204	0x3e9a33ca	0.30117637
205	0x3c73e340	0.014885724
206	0xbd1f80f0	-0.038941324
207	0xbc82b1c0	-0.015953898
208	0x3d38ecf7	0.045147862
209	0x3e9466cb	0.28984675
210	0x3d96d57e	0.07364939
211	0x3c4d57e3	0.012533161
212	0x3cd5f643	0.026118403
213	0x3f209833	0.6273224
214	0x3fd8f534	1.694983
215	0x3f0a394a	0.53993666
216	0x3d769a80	0.060205936
217	0x3ee1110b	0.43958315
218	0x3f1f1895	0.62146884
219	0x3f422e43	0.7585184
220	0x3ca8ce09	0.020606058
221	0x3ec90387	0.39260504
222	0xbf052113	-0.5200359
223	0xbed55e93	-0.41673717
224	0x3f5b7df5	0.8573907
225	0x3e66d400	0.22541809
226	0xbe9b60b5	-0.3034722
227	0x3d039e28	0.03213325
228	0xbe8c7ccd	-0.27438965
229	0x3edd230f	0.4319081
230	0x3f7f23b8	0.9966388
231	0xbdbbe5f6	-0.09174721
232	0x3f05ef44	0.52318215
233	0xbddac2f1	-0.10681713
234	0xbed4b723	-0.41545972
235	0x3caac4df	0.020845829
236	0xbf2ec5ae	-0.68270385
237	0x3ec3aa2a	0.38215762
238	0x3eab96c6	0.33513469
239	0xbedeb89e	-0.43500227
240	0xbed24576	-0.4106862
241	0xbd3365c0	-0.04379821
242	0x3e570d94	0.21001273
243	0xbc6d4200	-0.014481068
244	0x3d2f6eb1	0.042830173
245	0xbd3153a3	-0.043292653
246	0xbfa3bd22	-1.2792094
247	0xbf093519	-0.53596646
248	0xbf2ac3ee	-0.66705215
249	0x3ecc9aee	0.39961952
250	0x3f604b28	0.8761468
251	0x3e402f71	0.18768097
252	0x3cab632f	0.020921318
253	0x3d14a7e3	0.03629292
254	0xbf1b73ee	-0.6072377
255	0xbeb701af	-0.35743472

fc1.bias f4 [128]
0	0xbf0b93ae	-0.54522216
1	0x3eed9b5b	0.4640759
2	0x3ed63cc4	0.41843235
3	0xbefb92fc	-0.49135578
4	0xbec15433	-0.3775955
5	0xbebad230	-0.36488485
6	0xbe95133f	-0.29116246
7	0xbde737a0	-0.112899065
8	0xbf061ca4	-0.5238745
9	0xbecd23bf	-0.40066335
10	0x3ea6e236	0.3259446
11	0xbe68710b	-0.22699372
12	0xbe938ebc	-0.28819835
13	0xbe6f2339	-0.2335328
14	0x3e964347	0.29348204
15	0xbe90a69f	-0.28252122
16	0xbe6a1cf7	-0.22862612
17	0xbebd24c9	-0.36942127
18	0xbe884b0a	-0.2661975
19	0x3e6d5589	0.2317716
20	0x3eaa3984	0.33247006
21	0x3e8472d4	0.25868857
22	0xbe4585cb	-0.19289319
23	0xbea4f13c	-0.32215297
24	0x3eded73f	0.43523595
25	0xbd81dda2	-0.06341101
26	0xbee7e43e	-0.45291322
27	0x3f126255	0.5718129
28	0x3ecfbec9	0.40575245
29	0xbe837fd4	-0.25683463
30	0xbe679705	-0.22616203
31	0xbe96e098	-0.29468226
32	0xbef2ccbe	-0.4742183
33	0x3ec71d00	0.38889313
34	0xbee3c65c	-0.44487274
35	0x3f14edf3	0.5817558
36	0xbe2e721f	-0.17035721
37	0x3eece240	0.46266365
38	0xbe8975c3	-0.26847658
39	0xbebecbb9	-0.37264803
40	0x3ef166f9	0.47148874
41	0xbec3562c	-0.3815168
42	0xbebc85a5	-0.36820713
43	0xbe09ceab	-0.13457744
44	0x3ed04f5c	0.40685546
45	0xbe8543b5	-0.2602822
46	0xbecb2d00	-0.3968277
47	0xbeb3b055	-0.35095468
48	0xbea24485	-0.316929
49	0xbeccefcb	-0.40026698
50	0xbe8fa5c3	-0.28056154
51	0xbe91a282	-0.28444296
52	0x3e7c15ba	0.24617663
53	0xbe227361	-0.15864326
54	0xbeb49252	-0.35267884
55	0xbedc0846	-0.42975062
56	0xbf00154b	-0.5003249
57	0xbe22898d	-0.15872784
58	0x3ecfe387	0.40603277
59	0xbe99e950	-0.30060816
60	0xbecf62d4	-0.40505087
61	0xbea5b2f9	-0.32363108
62	0x3d89d3df	0.06729864
63	0xbe5e105e	-0.21685931
64	0x3e6e9e35	0.23302539
65	0xbe73387e	-0.23752019
66	0x3ea2eaca	0.31819755
67	0xbeab83bc	-0.33498943
68	0x3f15d7b3	0.58532256
69	0x3e4aa2a3	0.19788603
70	0xbe8ee0cc	-0.2790588
71	0x3f0b8e1c	0.54513717
72	0x3e9c7af7	0.30562565
73	0xbee5c37b	-0.44875702
74	0xbe947ae9	-0.29000023
75	0x3eea0f06	0.45714587
76	0x3ea031a5	0.31287876
77	0x3f10e125	0.56593543
78	0xbeb9fe92	-0.36327034
79	0x3efa9966	0.4894516
80	0x3ebcd8ff	0.36884305
81	0x3e5f336e	0.21796963
82	0xbe3e0891	-0.18557955
83	0x3f22768c	0.6346214
84	0x3de055a5	0.109538354
85	0xbe896df2	-0.26841694
86	0xbe84d443	-0.25943193
87	0x3f257599	0.64632565
88	0x3dc048da	0.09388895
89	0x3e55c238	0.2087487
90	0x3f1a6730	0.603137
91	0x3ebeba8a	0.37251693
92	0xbe24e112	-0.16101483
93	0xbef07dee	-0.46971077
94	0x3ee585cd	0.44828644
95	0x3f189580	0.5960312
96	0xbeb58ba9	-0.35458115
97	0x3e98d682	0.29851156
98	0xbdbbb17b	-0.09164711
99	0xbe434151	-0.19067885
100	0xbe2ac8a6	-0.16678104
101	0x3ec7bc71	0.39010957
102	0xbed62240	-0.41823006
103	0x3edde776	0.43340653
104	0x3ea033ed	0.31289616
105	0x3e8b079b	0.2715424
106	0x3f0a4ba2	0.54021657
107	0x3e93dd02	0.28879553
108	0xbd80f0d2	-0.06295933
109	0xbe60ce51	-0.21953703
110	0x3efcdc86	0.49386996
111	0x3dfd497b	0.12367531
112	0x3eeb96b0	0.46013403
113	0x3f170ede	0.5900706
114	0xbea6861d	-0.32524195
115	0x3eef55ba	0.46745092
116	0xbe55970e	-0.20858404
117	0x3f0e672f	0.55626196
118	0x3f0cc598	0.54989004
119	0xbecb6c1a	-0.39730912
120	0x3dd18ba2	0.10231711
121	0xbd92f8b6	-0.07176344
122	0xbed74f72	-0.420528
123	0xbe6da99e	-0.23209235
124	0xbcbe478a	-0.023227472
125	0xbdef23c4	-0.116767436
126	0xbec4bbe7	-0.38424608
127	0xbebed7ca	-0.3727401

fc2.weight f4 [64, 128]
0	0xbc5e167c	-0.013555165
1	0xbd701a21	-0.05861867
2	0x3d169980	0.036767483
3	0x3d932490	0.07184708
4	0x3d66a42b	0.056308907
5	0x3d203b4c	0.03911905
6	0xbd9c9bc4	-0.076468974
7	0x3d8cc40f	0.06873333
8	0xbd9f841d	-0.077888705
9	0xbcee0b9c	-0.02905827
10	0xbdade497	-0.08490866
11	0x3d02306b	0.031784456
12	0xbc1cd93f	-0.00957328
13	0xbd4dfc3d	-0.05028938
14	0xbd97ff76	-0.07421772
15	0xbd8d586b	-0.0690163
16	0xbd2901a2	-0.041261323
17	0x3db1f201	0.08688737
18	0xbd00282b	-0.031288307
19	0x3bb8d15c	0.005640192
20	0xbdf3046c	-0.11866078
21	0x3d8235c0	0.06357908
22	0xbd5f8352	-0.054568596
23	0xbdb200d7	-0.086915664
24	0x3cbc1dce	0.02296343
25	0xbd18824a	-0.03723363
26	0x3d96676e	0.073439464
27	0xbda55b1f	-0.080740206
28	0xbdc9cacc	-0.098531336
29	0xbcffcedd	-0.03122657
30	0xbd218704	-0.0394354
31	0x3b806344	0.0039180834
32	0xbde14f75	-0.11001483
33	0xbc2de338	-0.010613255
34	0x3d341f63	0.043975245
35	0x3baebc68	0.0053325184
36	0xbd52c88f	-0.0514608
37	0xbdafc8ce	-0.08583222
38	0x3d800a84	0.06252006
39	0xbd97ffb8	-0.07421821
40	0x3d179c74	0.03701444
41	0x3d92c583	0.071665786
42	0xbd8eab7a	-0.069663
43	0xbd6246c5	-0.055243272
44	0xbbf02f7e	-0.0073298803
45	0xbdb2ec76	-0.087365076
46	0xbc541909	-0.012945422
47	0xbd16d906	-0.036828063
48	0xbdc57448	-0.096413195
49	0xbde3c2d4	-0.11121145
50	0x3c1ea48d	0.009682787
51	0xbd66b545	-0.056325216
52	0xbdce4a6c	-0.100727886
53	0xbd179a34	-0.037012294
54	0xbd6cd6af	-0.057821926
55	0xbdd35c22	-0.10320307
56	0x3ca80b32	0.02051315
57	0xbd3db99d	-0.046319593
58	0x3d239b87	0.039943244
59	0x3c874b22	0.016515318
60	0xbd66e5cb	-0.05637149
61	0xbd5d05a8	-0.053960472
62	0xbe3f0eb2	-0.1865795
63	0x3c267fb2	0.010162281
64	0xbd4f3f04	-0.050597206
65	0xbd25b1a4	-0.040452614
66	0x3c63a37f	0.013893961
67	0x3d99a88d	0.07502852
68	0x3ca6b7dd	0.020351345
69	0xbdd77695	-0.105206646
70	0xbc9663f4	-0.018358208
71	0xbd169993	-0.036767554
72	0x3ca2e71c	0.019885592
73	0xbdac657d	-0.08417795
74	0xbd845655	-0.06461779
75	0xbd07469e	-0.03302633
76	0xbd1479c2	-0.03624893
77	0xbc1364b3	-0.0089961765
78	0xbc588bb5	-0.0132169025
79	0xbdaa1843	-0.08305409
80	0x3cba94e2	0.022776071
81	0x3d0d2b72	0.03446526
82	0x3c12e075	0.008964648
83	0xbdddaa70	-0.10823524
84	0x3c982415	0.018571893
85	0x3d3d129f	0.046160337
86	0x3cacf915	0.021114865
87	0xbd780b40	-0.060557604
88	0xbc33a46d	-0.010964495
89	0xbdf58322	-0.11987902
90	0x3d65b99b	0.05608521
91	0x3d373024	0.044723645
92	0xbc28c280	-0.010300279
93	0xbd739425	-0.059467454
94	0x3c324f9b	0.010883237
95	0x3c80ce7d	0.015723461
96	0x3d3fe879	0.046852563
97	0xbdaad024	-0.08340481
98	0x3c768d0b	0.015048276
99	0xbd4198bd	-0.047264803
100	0xbe0ada68	-0.13559878
101	0xbdc53f05	-0.09631161
102	0x3cb304d8	0.021852896
103	0x3c583896	0.013197085
104	0xbe058ef1	-0.13042809
105	0x3ca08032	0.019592378
106	0x3cbe755e	0.023249324
107	0x3cabadb0	0.020956844
108	0x3c36af07	0.011150128
109	0xbcb57e86	-0.022155058
110	0x3cded6d4	0.027202047
111	0x3d309782	0.04311324
112	0x3ce490aa	0.027901012
113	0xbdabf729	-0.083967514
114	0xbe562db5	-0.20915873
115	0x3d4a2f84	0.04936172
116	0x3d826ad2	0.063680306
117	0x3cc4f3ed	0.024042094
118	0xbd80c98c	-0.06288442
119	0xbd95b218	-0.07309359
120	0xbda55b79	-0.08074088
121	0xbd79a91a	-0.060952283
122	0x3c7d7517	0.015469811
123	0xbdacf1ab	-0.08444532
124	0xbd22c4b4	-0.039738372
125	0x3dc14c2b	0.09438356
126	0xbd31592d	-0.043297935
127	0x3ca8c86c	0.020603381
128	0xbeab1c5c	-0.33420074
129	0x3e217ca4	0.15770203
130	0x3d8e2b93	0.06941905
131	0x3c47d9ea	0.012197951
132	0xbf942c89	-1.1576091
133	0x3e3c333f	0.18378924
134	0xc0105abc	-2.255538
135	0xbeb1d71a	-0.34734422
136	0x3d4e07f0	0.05030054
137	0xbd9a9a1b	-0.075489245
138	0x3d94f2f0	0.07272899
139	0xbd840fd1	-0.06448329
140	0xbf509c18	-0.8148818
141	0xbfb38839	-1.4025947
142	0x3da77166	0.08175926
143	0xbf908474	-1.1290421
144	0xbf0fd842	-0.5618936
145	0xbf5447ba	-0.82921946
146	0xbe66bb71	-0.2253244
147	0xbbb47366	-0.0055069206
148	0x3e33cb1b	0.17557947
149	0x3e0aafc8	0.13543618
150	0xbf50d887	-0.81580395
151	0xbf708569	-0.9395357
152	0x3e498761	0.19680549
153	0xbef51dfd	-0.47874442
154	0xbf8e1efb	-1.1103204
155	0x3e161684	0.14657027
156	0x3e28c35e	0.16480777
157	0xbea62ccb	-0.3245605
158	0xbe89b040	-0.2689228
159	0xbf2c66b1	-0.67344195
160	0xbfa0d403	-1.2564701
161	0x3e26f02c	0.16302556
162	0xbf079e7e	-0.52976215
163	0x3e6dee6c	0.23235482
164	0xc02a1abc	-2.6578817
165	0x3dac6033	0.08416786
166	0xbeef7a6c	-0.46773088
167	0xbf9675a1	-1.1754647
168	0x3ccf16f1	0.025279494
169	0xbd31cd1b	-0.043408494
170	0xbfac1827	-1.3444871
171	0xbf1c3f86	-0.6103443
172	0x3e112aa5	0.14176424
173	0xbfa28523	-1.269688
174	0xbf208399	-0.627008
175	0x3da1fee5	0.079099454
176	0x3e52d85d	0.20590349
177	0x3e41683b	0.18887417
178	0xbf4944c6	-0.78620565
179	0xbb1e69a2	-0.0024171849
180	0x3e16baa7	0.1471964
181	0xbf4a52fb	-0.7903287
182	0xbd12e8f3	-0.03586669
183	0xbf1609f6	-0.5860895
184	0xbfb65b02	-1.4246523
185	0xbe0da9b8	-0.13834274
186	0x3dee03cb	0.11621817
187	0xbe8a9555	-0.27067056
188	0xbd7d5857	-0.061851826
189	0xbf7c39ef	-0.985259
190	0x3e820e28	0.25401425
191	0xbed8efed	-0.4237055
192	0x3e42100e	0.18951437
193	0xbf9ff077	-1.2495259
194	0x3e7d2936	0.24722752
195	0xbf5a3b1e	-0.85246456
196	0x3e90a5f3	0.2825161
197	0xbd32da9c	-0.043665513
198	0xc0330fcb	-2.797839
199	0x3e446834	0.19180375
200	0x3e80ec24	0.2518016
201	0xbf141959	-0.5785118
202	0xbf7edcfb	-0.9955594
203	0x3e27c5d9	0.16384067
204	0x3dffaf6b	0.1248463
205	0x3df8171e	0.12113784
206	0xbf826013	-1.018557
207	0x3dff3813	0.12461867
208	0x3e3ef113	0.1864665
209	0x3e195260	0.1497283
210	0xbc4fc3ba	-0.012680942
211	0x3e282945	0.16421993
212	0x3dce6ff3	0.10079946
213	0x3e6bc34f	0.23023723
214	0xbf81d31b	-1.0142549
215	0x3e2be97e	0.16788289
216	0xbd9ef787	-0.07762056
217	0x3dd54dd5	0.10415236
218	0x3dcf6ae9	0.10127813
219	0x3e0baf99	0.13641204
220	0x3f304bc1	0.6886559
221	0xbee981bc	-0.45606792
222	0x3dbe633b	0.092962705
223	0x3e692645	0.22768505
224	0xbd4afd5f	-0.04955804
225	0x3dfe3fd1	0.12414516
226	0xbf0d01a2	-0.55080616
227	0xbfa3b5ac	-1.2789817
228	0xbf0eb148	-0.5573926
229	0x3e7139fe	0.23557279
230	0xbf7844dd	-0.9698008
231	0x3e020b88	0.12699711
232	0x3e5d556b	0.21614616
233	0x3d8bf061	0.06832958
234	0x3e5a1153	0.21295671
235	0x3e4066dc	0.18789238
236	0xbe4e54f1	-0.2014959
237	0xbfdbe7ef	-1.7180156
238	0x3d91b12e	0.071138725
239	0xbd87d1f2	-0.06631841
240	0x3d97cc91	0.07412065
241	0x3d8fed64	0.070277005
242	0xbf841239	-1.0318061
243	0x3e468002	0.19384769
244	0xbf8cbe02	-1.0995486
245	0x3e0c9d76	0.13731942
246	0x3e232e14	0.15935546
247	0xbd96bd89	-0.0736037
248	0x3da41afe	0.08012961
249	0xbe4c65c4	-0.19960696
250	0xbfca219a	-1.5791504
251	0xbdfea62d	-0.12434039
252	0xbc9937fc	-0.018703453
253	0xbf762ae7	-0.96159214
254	0xbf75d7f6	-0.96032655
255	0x3dd278b3	0.10276928

fc2.bias f4 [64]
0	0x3cb18639	0.021670448
1	0x3e14e4db	0.14540426
2	0x3e81fa5b	0.2538632
3	0x3e1a6977	0.15079294
4	0xbd01e951	-0.03171665
5	0x3e108e97	0.14116894
6	0xbd92361e	-0.07139228
7	0xbdd5868f	-0.10426056
8	0xbd98a3d3	-0.07453122
9	0xbd1d12d5	-0.038348038
10	0x3e9421ab	0.28931937
11	0xbbf6b348	-0.007528696
12	0x3e512187	0.20422946
13	0x3b84f86e	0.0040579354
14	0xbd89f667	-0.06736451
15	0xbd8491e0	-0.06473136
16	0xbcf17898	-0.029476449
17	0xbe271456	-0.16316351
18	0x3e25716d	0.1615655
19	0x3e852df2	0.26011616
20	0x3d55bfd4	0.052184895
21	0xbd97a89b	-0.07405206
22	0xbd16e820	-0.036842465
23	0xbda8c50e	-0.0824071
24	0x3b161bf9	0.0022904857
25	0x3e598587	0.21242343
26	0x3e626867	0.22110139
27	0x3e64e113	0.22351484
28	0x3db4a9f8	0.088214815
29	0xbdc83376	-0.097754404
30	0xbd42695e	-0.047463767
31	0x3e182851	0.1485913
32	0x3c453852	0.012037354
33	0xbd8184f0	-0.06324184
34	0x3e94c5d2	0.29057175
35	0xbd85f141	-0.06540156
36	0xbdc8bf79	-0.098021455
37	0xbdc0e6ce	-0.094190225
38	0xbd94ad1d	-0.07259581
39	0x3e4cc849	0.19998278
40	0x3e31f9ac	0.17380399
41	0x3e51dbb8	0.20493972
42	0xbc7f7570	-0.015591964
43	0xbaf2f81a	-0.0018537075
44	0x3e4be4b4	0.19911462
45	0xbdbeef8e	-0.09323035
46	0x3e5e134f	0.21687053
47	0x3e30e1bd	0.17273612
48	0xbbebc359	-0.007194918
49	0x3e8f5d7e	0.28001016
50	0x3e8bc461	0.27298263
51	0x3e3d8a87	0.18509875
52	0xbc63c3b6	-0.013901642
53	0xbd9fa4b3	-0.07795086
54	0x3d0a7ab2	0.033808418
55	0x3e61a5ff	0.22035979
56	0x3e6c7a9a	0.23093644
57	0xbd80ec5a	-0.062950805
58	0xbd960d14	-0.07326713
59	0xbdb0b298	-0.08627814
60	0xbd056173	-0.032563638
61	0x3e6ebfe2	0.23315385
62	0x3e3701bf	0.1787176
63	0x3eb19f97	0.3469207

out.weight f4 [3, 64]
0	0xbdbbd779	-0.091719575
1	0x3f0eaec3	0.55735415
2	0x3f2950b2	0.66138756
3	0x3f056814	0.52111936
4	0xbdb738dc	-0.08946392
5	0x3f287a6a	0.6581179
6	0xbdca6b39	-0.09883732
7	0xbd815c0b	-0.06316384
8	0xbd6841c7	-0.056703355
9	0x3dd32706	0.103101775
10	0x3ef6b649	0.48185948
11	0xbc54c833	-0.012987184
12	0x3f0c711e	0.54860103
13	0xbda7a4ce	-0.08185731
14	0xbdbd8ace	-0.092549905
15	0xbf524443	-0.8213541
16	0xbcbf1091	-0.02332333
17	0xbf9f7474	-1.2457414
18	0x3f283787	0.6570973
19	0x3f2a8982	0.6661607
20	0x3e714e7f	0.235651
21	0x3dd39780	0.10331631
22	0xbc2e1f70	-0.0106276125
23	0xbd85f72d	-0.06541286
24	0xbb8321da	-0.004001838
25	0x3f09d4a0	0.53840065
26	0x3f17b53b	0.5926091
27	0x3f300768	0.687613
28	0xbdc54662	-0.09632565
29	0x3de5097e	0.11183451
30	0x3d8a79b8	0.06761497
31	0x3ee7ba3f	0.45259282
32	0xbdd764b1	-0.10517252
33	0x3c3f4510	0.011674181
34	0x3f289ff2	0.6586906
35	0xbd78fa70	-0.06078571
36	0xbd8f17d5	-0.069869675
37	0xbdb363be	-0.08759259
38	0x3b031ce8	0.0020006243
39	0x3f078c90	0.52948856
40	0x3f28570b	0.6575782
41	0x3f1d18fa	0.61366236
42	0xbd0703c4	-0.032962576
43	0xba889574	-0.0010420517
44	0x3f1f77cf	0.6229219
45	0x3d932366	0.07184486
46	0x3efc3d0c	0.49265325
47	0x3f103120	0.5632496
48	0xbd99354d	-0.074808694
49	0x3ef00859	0.4688137
50	0x3eb7395d	0.35785952
51	0x3f0d092c	0.5509212
52	0xbc87f361	-0.016595544
53	0xbdec182c	-0.11528048
54	0xbc75581c	-0.01497462
55	0x3efd4d3d	0.4947299
56	0x3f43573a	0.7630497
57	0xbdfb57d6	-0.12272613
58	0xbdad2aa8	-0.08455402
59	0x3d478ccf	0.04871827
60	0x3d3fae3a	0.046797015
61	0x3ef43d44	0.47702992
62	0x3f080935	0.5313905
63	0x3f2b8eb5	0.6701463
64	0xbdb18130	-0.08667219
65	0x3f31f861	0.6951962
66	0x3f1f2dc5	0.62179214
67	0x3f2420a3	0.641123
68	0xbc832422	-0.01600844
69	0x3ea795df	0.3273153
70	0xbdb7031e	-0.089361414
71	0x3c7fb9d4	0.01560827
72	0x3d7a4fe0	0.06111133
73	0x3ca1f768	0.019771293
74	0x3f010f76	0.50414217
75	0xbd99778d	-0.074935056
76	0x3f08eaa5	0.5348304
77	0xbd5b9d47	-0.05361679
78	0x3d011d60	0.031522155
79	0xbf776df7	-0.9665217
80	0x3db171b6	0.08664267
81	0xbf0bb3e0	-0.5457134
82	0x3f1fcb0c	0.624192
83	0x3f19272d	0.598254
84	0x3f11cff4	0.56957936
85	0x3db1480d	0.08656321
86	0xbb551c40	-0.003251806
87	0x3dc5950a	0.096475676
88	0xbcb93030	-0.022605985
89	0x3f351e8e	0.7074975
90	0x3f142a85	0.5787738
91	0x3f0ac4cd	0.54206544
92	0x3d5f2f64	0.054488555
93	0xbd1856f8	-0.037192315
94	0x3d78cf80	0.060744762
95	0x3f1452fb	0.5793912
96	0xbddbc25b	-0.1073043
97	0xbda9dbb2	-0.08293857
98	0x3f15abe5	0.58465415
99	0xbdbd3618	-0.09238833
100	0x3d771f40	0.060332537
101	0x3d87638a	0.066107824
102	0xbd99b31a	-0.07504864
103	0x3f2243d0	0.63384724
104	0x3f0e250b	0.55525273
105	0x3f00fbcf	0.5038423
106	0x3dce8a88	0.100850165
107	0xbd6a93fc	-0.057270035
108	0x3f0e1767	0.5550446
109	0xbde6d426	-0.11270933
110	0x3f09e6ab	0.53867596
111	0x3f170436	0.589908
112	0xbdbd82ba	-0.0925345
113	0x3eeb7894	0.4599043
114	0x3f19bb4f	0.60051435
115	0x3ef210f0	0.47278547
116	0x3dd01806	0.10160832
117	0x3cffee78	0.03124164
118	0x3d49aed8	0.04923901
119	0x3f3268a8	0.6969094
120	0x3ef9da66	0.48799437
121	0xbdd2dc5e	-0.10295938
122	0xbdd32702	-0.103101745
123	0xbded90bd	-0.11599872
124	0xbd7d3471	-0.06181759
125	0x3f1dc9da	0.61636126
126	0x3f03f4ca	0.51545393
127	0x3ee64f3e	0.44982332
128	0x3d326edd	0.04356276
129	0x3f32182c	0.69568133
130	0x3f0af24d	0.5427597
131	0x3ef8155b	0.48453793
132	0x3c25e99f	0.0101265
133	0xbda684ab	-0.08130773
134	0x3d6c83cf	0.05774289
135	0x3d232a07	0.039835002
136	0xbd740421	-0.05957425
137	0x3d20599c	0.03914796
138	0x3f3a03e8	0.7266221
139	0x3d464736	0.048407756
140	0x3f0acfb3	0.54223174
141	0x3d0f2426	0.034946583
142	0x3cc054b0	0.023477882
143	0xbf831269	-1.0239993
144	0x3d28c147	0.04119995
145	0xbfd4224b	-1.6572965
146	0x3eeecf2e	0.4664244
147	0x3f14fbc9	0.58196694
148	0x3e830f3b	0.25597557
149	0x3dedbe76	0.11608593
150	0xbd961772	-0.073286906
151	0x3dfa18c6	0.122117564
152	0xbddb0b82	-0.10695554
153	0x3f1a4ded	0.60275155
154	0x3efe1229	0.4962323
155	0x3f18c444	0.5967448
156	0xbdf9cac6	-0.12196879
157	0x3d8f7cde	0.070062384
158	0x3c454220	0.012039691
159	0x3eee3ab7	0.4652917
160	0x3c40a0b0	0.011757061
161	0x3df551fe	0.119785294
162	0x3f161333	0.58623046
163	0xbb94efba	-0.004545179
164	0xbdb2012c	-0.0869163
165	0xbd62224b	-0.055208486
166	0x3d516061	0.051117305
167	0x3f23eebb	0.6403615
168	0x3ed1f6b6	0.41008538
169	0x3f463dd8	0.77438116
170	0xbd444376	-0.0479159
171	0x3d8402b6	0.064458296
172	0x3f19d1e6	0.60085905
173	0x3d9bea4b	0.07613047
174	0x3f40a5e2	0.7525312
175	0x3ef94835	0.48687902
176	0x3db770f2	0.089570895
177	0x3f1bd7bf	0.6087608
178	0x3f339707	0.70152324
179	0x3eca1ddb	0.39475903
180	0xbce7cd12	-0.028296027
181	0xbdbb8b65	-0.09157447
182	0xbd77df53	-0.060515713
183	0x3f4b31fc	0.79373145
184	0x3ea5e918	0.324044
185	0x3ce096de	0.02741569
186	0xbca7a8a0	-0.020466149
187	0x3d991612	0.07474913
188	0x3e10bb9a	0.14134064
189	0x3f1d937c	0.6155317
190	0x3f396651	0.7242175
191	0x3f13470f	0.575303

out.bias f4 [3]
0	0x3ea58770	0.32329893
1	0x3de69e4f	0.11260664
2	0x3e35daf6	0.17759308
