project3/dynamics.pth (torch_old, 185529 bytes, 10 tensors)

linear1.weight f4 [256, 9]
0	0x3dd6325d	0.10458825
1	0x3db272c0	0.08713293
2	0x3d9e820b	0.077396475
3	0x3eca8909	0.39557675
4	0xbcc7a036	-0.024368387
5	0x3e1dcf77	0.15411173
6	0xbe0a607c	-0.13513368
7	0xbe2f8176	-0.17139229
8	0xbe92d0e2	-0.2867499
9	0xbe06ecd3	-0.13176279
10	0xbe0979b7	-0.13425337
11	0xbe536ef0	-0.20647788
12	0xbd919e03	-0.071102165
13	0xbc99e295	-0.0187848
14	0xbc58e93d	-0.013239202
15	0x3c09a56b	0.008401255
16	0x3e7a7eaa	0.24462381
17	0xbe60de20	-0.21959734
18	0x3e131035	0.14361651
19	0x3c01561b	0.007894064
20	0x3f1004a1	0.56257063
21	0xbe395879	-0.18100156
22	0x3caa384c	0.020778798
23	0xbe361625	-0.17781885
24	0xbe7ac27f	-0.24488257
25	0xbd413718	-0.047171682
26	0xbd98d934	-0.07463303
27	0x3dbc01eb	0.09180053
28	0xbe18bc93	-0.14915685
29	0x3e608f5f	0.21929692
30	0x3dace63f	0.084423535
31	0x3d4abe53	0.049497914
32	0xbd4151cc	-0.04719715
33	0xbd82d07e	-0.06387423
34	0xbe7c8f58	-0.24664056
35	0x3c86c6d0	0.016452223
36	0x3dd8e83c	0.1059117
37	0xbec55125	-0.3853847
38	0x3e062a68	0.13102114
39	0x3dff28b8	0.12458938
40	0x3c08da01	0.008352757
41	0x3d3067be	0.043067686
42	0xbe627343	-0.22114281
43	0x3d6966c0	0.056982756
44	0xbe98123e	-0.29701418
45	0x3e276654	0.16347629
46	0xbebc7a2b	-0.36811957
47	0xbf170f45	-0.59007674
48	0xbcbcf234	-0.02306471
49	0xbdec7a7b	-0.11546799
50	0x3dacc4d8	0.084359825
51	0xbe5a3916	-0.21310839
52	0x3d145498	0.036213487
53	0xbe907e58	-0.28221393
54	0x3e23b080	0.15985298
55	0xbed83282	-0.42226034
56	0x3ca32420	0.019914687
57	0xbeb0fa1f	-0.34565827
58	0xbea2ded5	-0.31810632
59	0xbe369cbe	-0.1783323
60	0xbe4215eb	-0.18953674
61	0x3d87832c	0.06616816
62	0x3b9866c0	0.0046509206
63	0x3deb2e0f	0.11483394
64	0xbf001665	-0.5003417
65	0x3ebdc331	0.37062982
66	0xbbde3d82	-0.0067822346
67	0x3e40647b	0.1878833
68	0xbda18d1e	-0.07888244
69	0xbe7c44ba	-0.24635592
70	0x3db73ea0	0.08947492
71	0xbd425558	-0.04744467
72	0xbda8df2e	-0.08245693
73	0xbd3e1ff4	-0.04641719
74	0xbcc681a5	-0.024231741
75	0xbd9543c3	-0.07288315
76	0xbd1d3b7f	-0.038386818
77	0xbc697fe9	-0.014251688
78	0x3cba6ff7	0.022758467
79	0xbd2fa760	-0.04288423
80	0x3d829ef0	0.06377971
81	0xbe7648b4	-0.24051172
82	0x3dcbcf47	0.099516444
83	0x3e17689e	0.14786002
84	0x3c45359f	0.01203671
85	0x3e36e240	0.17859745
86	0xbdbaf899	-0.091294475
87	0x3e5c0143	0.21484856
88	0x3cda3830	0.02663812
89	0x3e29e290	0.16590333
90	0x3e9f44cf	0.31107184
91	0xbda74610	-0.0816766
92	0xbcb67390	-0.022271901
93	0x3cbf66b0	0.023364395
94	0xbe96187f	-0.29315564
95	0xbdc9a166	-0.098452374
96	0xbe8d3ec8	-0.2758696
97	0xbe8b139c	-0.27163398
98	0x3d83c43c	0.06433913
99	0x3dd4f18b	0.10397633
100	0x3ddb013e	0.10693596
101	0x3e83d57b	0.2574881
102	0xbcf7717b	-0.030205479
103	0x3c4e35f0	0.012586102
104	0xbc20c7c5	-0.009813254
105	0x3c81f7a7	0.01586516
106	0x3d89660c	0.06708917
107	0xbdbde9b6	-0.092730924
108	0xbd046958	-0.032327026
109	0xbe9f2ef1	-0.310905
110	0x3f889160	1.0669365
111	0x3e40a4fa	0.18812934
112	0x3e47805e	0.19482562
113	0xbda2f655	-0.0795714
114	0xbde24e4a	-0.11050089
115	0x3e6d67fa	0.23184195
116	0x3d3767b8	0.04477665
117	0x3e708448	0.23487961
118	0xbeaaa952	-0.33332306
119	0x3de64585	0.112437285
120	0x3da34cb5	0.07973615
121	0x3ec51aa2	0.38496882
122	0xbe8293da	-0.25503427
123	0xbe4fc332	-0.20289305
124	0x3cdfdff0	0.027328461
125	0x3c3525a0	0.011056334
126	0x3d065a64	0.032801047
127	0x3e5d668c	0.2162115
128	0xbe89c30a	-0.26906615
129	0xbd3ffe44	-0.046873346
130	0xbdae0867	-0.08497696
131	0x3d63472d	0.0554878
132	0x3d9c262e	0.0762447
133	0x3eaaa8e9	0.33331993
134	0x3e106982	0.14102748
135	0x3ae202bb	0.0017243245
136	0xbe354407	-0.17701732
137	0x3ea24538	0.31693435
138	0x3cf0dc61	0.02940196
139	0xbba700d3	-0.005096534
140	0x3c5ef652	0.013608532
141	0xbd5938fa	-0.053032853
142	0xbb6a5280	-0.003575474
143	0x3e6501ce	0.2236397
144	0xbdfecf1d	-0.124418475
145	0xbe84bbfc	-0.2592467
146	0xbeb4f8df	-0.35346124
147	0x3ef7b3c3	0.48379335
148	0x3e2dbbec	0.16966218
149	0xbea1bf9f	-0.31591508
150	0x3da84ec8	0.08218151
151	0x3dbf8f3c	0.09353492
152	0xbe1f6210	-0.15564752
153	0x3dcc5a5b	0.099781714
154	0xbdfd4697	-0.123669796
155	0x3f113fdd	0.5673807
156	0x3e9d9df6	0.30784577
157	0x3e183169	0.14862598
158	0xbd380032	-0.04492206
159	0xbe0ac4cb	-0.13551633
160	0xbe42db96	-0.19029078
161	0x3e5d8b92	0.21635273
162	0x3e661798	0.22469938
163	0x3e692b68	0.22770464
164	0xbeb503cc	-0.3535446
165	0x3d8a7a49	0.06761605
166	0xbe039f63	-0.1285377
167	0x3e5078f1	0.20358635
168	0x3dfc881e	0.1233065
169	0x3dd672e0	0.104711294
170	0x3e9b85b5	0.30375448
171	0xbe254944	-0.1614123
172	0x3ebcd73f	0.3688297
173	0xbcf8b058	-0.030357525
174	0x3e1f6eab	0.1556956
175	0x3e435d18	0.19078481
176	0xbaaa7f21	-0.0013007858
177	0x3e49a995	0.19693597
178	0xbe8f496c	-0.27985704
179	0xbe4c80d3	-0.19971018
180	0x3ddd6208	0.108097136
181	0xbd583e6a	-0.052793898
182	0x3f3fc393	0.749078
183	0x3c92f044	0.017936833
184	0xbc87ff95	-0.016601363
185	0x3e5cfa9b	0.21579973
186	0x3d6c70c7	0.05772474
187	0xbea5f19b	-0.32410893
188	0x3e82f8a9	0.25580338
189	0xbd982944	-0.07429746
190	0xbed1b1c8	-0.4095595
191	0x3ed988c7	0.42487165
192	0x3d8992ea	0.06717475
193	0x3d59873e	0.053107493
194	0xbc3107ee	-0.010805113
195	0xbda2de30	-0.07952535
196	0xbe920fa2	-0.28527552
197	0x3d99238c	0.07477483
198	0xbe32a242	-0.17444709
199	0xbf00a419	-0.50250393
200	0x3ec18c5a	0.37802392
201	0x3d3d5d2c	0.046231434
202	0xbc837f21	-0.01605183
203	0x3d5d93cc	0.05409603
204	0xbe10aade	-0.1412768
205	0x3df6d364	0.12052038
206	0xbea998be	-0.33124346
207	0x3c963f72	0.0183408
208	0xbf26dfca	-0.65185225
209	0x3d80d76d	0.06291089
210	0x3da5165a	0.08060904
211	0xbd96b7bf	-0.073592655
212	0x3e0a9fcd	0.13537522
213	0xbe9a9578	-0.3019216
214	0x3d69f9b8	0.057122916
215	0xbdd92640	-0.10602999
216	0x3ddc4944	0.10756162
217	0xbc2b43eb	-0.010453205
218	0xbef4182e	-0.47674698
219	0x3e0f384f	0.13986324
220	0x3d8538e3	0.06504991
221	0x3d0bd853	0.03414185
222	0xbd882ea6	-0.066495225
223	0x3dc49520	0.09598756
224	0x3d5d1f08	0.05398467
225	0x3dc087ac	0.09400877
226	0x3e46fba7	0.19431935
227	0xbf6ad51d	-0.91731435
228	0x3e979c44	0.2961141
229	0xbe9a414c	-0.30127943
230	0xbda658b8	-0.081223905
231	0x3d99e534	0.0751442
232	0x3e4249e6	0.18973503
233	0xbcd98e80	-0.026557207
234	0xbbfb878c	-0.0076760706
235	0x3ce8ffc7	0.028442277
236	0x3c5b25f8	0.013375752
237	0x3dd88f1d	0.10574172
238	0xbca3d0dc	-0.019997053
239	0xbd47650f	-0.04868036
240	0x3c5d619a	0.01351204
241	0x3e4a05a6	0.19728717
242	0x3e464c32	0.19365004
243	0xbe5c3732	-0.2150543
244	0x3e69e6d3	0.22841959
245	0x3ca58b79	0.020208107
246	0xbe76418d	-0.24048443
247	0x3dd104c7	0.10205989
248	0x3d1a44ba	0.0376632
249	0x3deca796	0.11555402
250	0xbe8b7926	-0.27240866
251	0xbe90993f	-0.28241917
252	0x3e4aa611	0.19789912
253	0xbe2db3c8	-0.16963112
254	0xbe03727f	-0.12836646
255	0x3d20210b	0.039094012

linear1.bias f4 [256]
0	0xbdfb45ac	-0.12269148
1	0xbe986f59	-0.29772452
2	0xbe176d45	-0.14787777
3	0xbcb08534	-0.021547891
4	0x3e0ec647	0.13942824
5	0x3e9b9c4e	0.3039269
6	0xbd548306	-0.051882766
7	0x3dddca6f	0.10829627
8	0xbe50670e	-0.20351812
9	0xbee18445	-0.44046226
10	0xbe2da708	-0.16958249
11	0x3d616bb4	0.055034354
12	0xbddc3a24	-0.10753277
13	0x3ebcc3b7	0.3686807
14	0x3c3f5257	0.011677346
15	0xbdbc1072	-0.09182824
16	0xbe4057e5	-0.18783529
17	0x3e090ffc	0.13385004
18	0x3e835a50	0.2565484
19	0xbebb3434	-0.36563265
20	0x3c220092	0.009887831
21	0xbe93ee26	-0.2889263
22	0xbe8d6670	-0.27617216
23	0xbd80bc80	-0.062859535
24	0x3d4bb9f9	0.049737904
25	0xbe8197b2	-0.25311047
26	0xbca06cbc	-0.019583099
27	0xbea01411	-0.3126531
28	0x3de8e717	0.11372202
29	0xbe22d7c2	-0.15902618
30	0xbd92f18b	-0.07174977
31	0xbe454acf	-0.19266818
32	0xbe5c922a	-0.21540132
33	0xbd2de31d	-0.04245292
34	0x3e284579	0.16432752
35	0x3deb2fcf	0.11483728
36	0xbe8b8d87	-0.27256414
37	0xbeb6c3af	-0.3569617
38	0x3e68c0ff	0.22729872
39	0xbcc4298b	-0.02394559
40	0xbd7c5633	-0.061605643
41	0xbe9eb76a	-0.3099931
42	0x3d1dabd1	0.038493935
43	0xbd4b0e84	-0.04957439
44	0x3e6f0d74	0.23344976
45	0xbe50bb41	-0.20383932
46	0x3d3fe894	0.046852663
47	0xbe8022a6	-0.25026435
48	0x3dda1111	0.106477864
49	0xbe3813d5	-0.17976315
50	0xbeadcfae	-0.3394751
51	0x3e448425	0.19191034
52	0x3e53c563	0.20680766
53	0xbdd014cc	-0.10160217
54	0x3ccd3387	0.025048984
55	0xbeb96983	-0.36213312
56	0xbe843fca	-0.25829917
57	0x3d92747d	0.071511246
58	0xbd6b33c4	-0.057422414
59	0xbdb87b1e	-0.09007858
60	0xbe893343	-0.26796922
61	0x3e4f73b1	0.20258977
62	0x3d301976	0.04299303
63	0xbeace4bf	-0.3376827
64	0xbdcb0ee9	-0.09914953
65	0x3e65704a	0.22406116
66	0xbe001d52	-0.12511185
67	0xbe8b9e7f	-0.2726936
68	0xbdec2218	-0.1152994
69	0xbe8352b8	-0.25649047
70	0xbe2a4835	-0.16629107
71	0x3dcd7d0d	0.10033617
72	0xbeaf81ee	-0.34278816
73	0xbe5da625	-0.2164541
74	0xbdb21b97	-0.086966686
75	0xbe9e417b	-0.30909333
76	0x3d612807	0.054969814
77	0xbde6206a	-0.11236651
78	0xbe8f3eda	-0.2797764
79	0x3cc53bc9	0.02407636
80	0xbea36f1a	-0.319207
81	0x3e67eb78	0.22648418
82	0x3da9fb63	0.08299901
83	0x3e220fd1	0.15826346
84	0xbd83432c	-0.064092964
85	0xbd9b30db	-0.07577678
86	0x3ea70fd0	0.3262925
87	0xbe455def	-0.19274114
88	0xbe5e6df2	-0.21721628
89	0xbd7b5d24	-0.061368123
90	0x3e646892	0.22305515
91	0x3dbf5a6d	0.09343419
92	0x3e425285	0.18976791
93	0x3e1beb0a	0.15226379
94	0x3d9f129b	0.077672206
95	0x3e907643	0.28215227
96	0xbe3b3128	-0.1828047
97	0xbe550ece	-0.20806429
98	0x3e5a835f	0.21339177
99	0xbdbae165	-0.09125022
100	0xbbbd2a0b	-0.005772834
101	0x3d9fcabf	0.078023426
102	0x3b534ebf	0.0032242981
103	0x3d07ad82	0.033124454
104	0xbdbcefda	-0.092254356
105	0xbd751a70	-0.059839666
106	0xbcb19bfe	-0.021680828
107	0x3e2101b7	0.1572331
108	0x3e82aad0	0.25520945
109	0xbdefccf5	-0.11709014
110	0xbe29bc1b	-0.16575663
111	0xbeab8bca	-0.33505088
112	0xbea70362	-0.32619768
113	0x3d8f39a4	0.06993416
114	0x3e3d8e24	0.18511254
115	0x3e6246fe	0.22097394
116	0x3ce518c6	0.027965914
117	0x3db97f48	0.0905748
118	0x3e01e32d	0.12684317
119	0x3e7af939	0.24509133
120	0x3e3695e3	0.17830615
121	0x3da9e1c4	0.082950145
122	0x3e7ae077	0.24499689
123	0x3d7b9cbd	0.061428774
124	0xbe99fb3c	-0.3007449
125	0xbecc93ab	-0.39956412
126	0x3ef47040	0.4774189
127	0xbecae26c	-0.3962587
128	0xbe730ebb	-0.23736088
129	0xbe59d2d4	-0.21271831
130	0xbe6a0b17	-0.22855793
131	0x3e8ea053	0.27856693
132	0x3df0678c	0.117385
133	0xbe1ab7af	-0.15109132
134	0x3eb385ad	0.35062924
135	0x3e16c24a	0.14722553
136	0xbed16097	-0.40894005
137	0x3e5cd3d6	0.21565184
138	0xbd43f95a	-0.047845222
139	0x3aee7e85	0.0018195665
140	0xbdd68c7c	-0.10476014
141	0x3e1a7c17	0.15086399
142	0xbe3c7f79	-0.18408002
143	0xbd623c69	-0.055233393
144	0xbe9259d1	-0.2858415
145	0xbe8e91cf	-0.27845618
146	0xbeb221d3	-0.3479143
147	0xbeb648b3	-0.3560234
148	0xbec78a57	-0.38972732
149	0xbe81d37b	-0.2535666
150	0xbd311852	-0.043236084
151	0xbe8a6b4d	-0.2703499
152	0xbe708e8e	-0.2349188
153	0xbe12ef01	-0.14348985
154	0xbebf1747	-0.37322447
155	0xbe5e7c33	-0.21727066
156	0x3a2e2663	0.00066432933
157	0xbed6df71	-0.41967347
158	0xbe8c44b0	-0.27396154
159	0x3e803046	0.2503683
160	0xbe1ed4af	-0.1551082
161	0xbd1df569	-0.03856412
162	0x3e791ae0	0.24326658
163	0xbe03d037	-0.12872396
164	0x3e165f10	0.14684701
165	0xbec18abd	-0.3780116
166	0xbeb58f02	-0.3546067
167	0xbe22c6e0	-0.15896177
168	0xbe4b0c7d	-0.19828983
169	0xbdabdf40	-0.08392191
170	0xbea2239b	-0.3166779
171	0xbd99d2ca	-0.07510908
172	0xbe671011	-0.22564723
173	0x3e6ebb8b	0.2331373
174	0x3ddc7c00	0.107658386
175	0x3d5ce0bb	0.053925257
176	0xbe2b6b39	-0.16740121
177	0x3d424594	0.047429636
178	0xbc5aa3fe	-0.013344763
179	0xbb833141	-0.0040036743
180	0xbe390919	-0.18069877
181	0xbe10f556	-0.14156088
182	0x3c1ffd35	0.009764959
183	0x3c88de42	0.016707543
184	0xbd95238c	-0.07282171
185	0xbe8b10a4	-0.27161133
186	0xbd902095	-0.070374645
187	0xbe3fc674	-0.18728048
188	0xbdaa9f32	-0.08331145
189	0x3cfbb5ef	0.030726401
190	0x3ea89350	0.3292489
191	0xbe818236	-0.25294656
192	0x3e5012a7	0.20319615
193	0xbe033d51	-0.12816359
194	0x3d2736b2	0.040823646
195	0x3d8d6133	0.06903305
196	0xbd8e8b3d	-0.06960151
197	0xbec07149	-0.3758643
198	0xbe815e27	-0.25267145
199	0xbeb7343c	-0.3578204
200	0xbe61c445	-0.22047527
201	0x3e2cd34d	0.1687748
202	0x3d94ef78	0.072722375
203	0xbe9fbe81	-0.3120003
204	0x3e1071be	0.14105889
205	0x3e3ebafd	0.18626018
206	0xbd9d1d04	-0.0767155
207	0x3d3808b0	0.04493016
208	0xbea64af0	-0.32479048
209	0x3e280cdc	0.16411155
210	0x3e994246	0.29933375
211	0x3cf79289	0.03022124
212	0x3e81006f	0.25195643
213	0xbc4027a8	-0.011728205
214	0xbe01cd22	-0.12675908
215	0xbedc6661	-0.4304686
216	0xbe00583d	-0.1253366
217	0x3d249554	0.040181473
218	0xbe30debb	-0.17272465
219	0x3e332819	0.17495765
220	0xbe925f3f	-0.28588292
221	0x3e4fc7e5	0.20291097
222	0xbd6e00f0	-0.058106363
223	0x3e98c158	0.2983501
224	0xbccbeba8	-0.024892643
225	0x3e0df744	0.13863856
226	0xbecd2b05	-0.40071884
227	0x3d85521b	0.06509801
228	0xbea76864	-0.3269683
229	0x3e7995cb	0.24373548
230	0x3d381d84	0.044950023
231	0xbd9fa63e	-0.0779538
232	0x3da4004f	0.08007871
233	0x3e43b857	0.19113289
234	0xbe5a9d62	-0.213491
235	0xbeb4b35b	-0.35293087
236	0xbe0a8af2	-0.13529566
237	0x3d04f859	0.032463405
238	0xbe9e44f2	-0.30911976
239	0xbbe36cbb	-0.006940452
240	0xbeb19303	-0.34682474
241	0xbde280f0	-0.11059749
242	0xbdb05476	-0.0860986
243	0xbe2778e6	-0.16354713
244	0x3eb2741a	0.34854203
245	0x3ba0b97b	0.0049049235
246	0xbd894c4e	-0.06704007
247	0xbec05922	-0.37568003
248	0xbe115928	-0.14194167
249	0x3bfe875b	0.0077676005
250	0xbdb24a81	-0.08705617
251	0xbdde3f27	-0.10851889
252	0x3ddfac9c	0.109215945
253	0xbe183076	-0.14862236
254	0x3dcaa047	0.09893852
255	0xbe4c4bfc	-0.1995086

linear2.weight f4 [128, 256]
0	0xbe9ba298	-0.30397487
1	0xbd269f9f	-0.04067957
2	0x3e310c38	0.17289817
3	0xbd7a42c8	-0.061098844
4	0x3daa52c7	0.0831657
5	0xbe8c8966	-0.27448577
6	0xbd9b7e80	-0.07592487
7	0xbf0a0d5f	-0.5392665
8	0x3dc2070d	0.09474001
9	0x3dc17c85	0.09447578
10	0x3c7eeea8	0.01555983
11	0x3e20cc7e	0.15703008
12	0xbd300496	-0.042973123
13	0x3d17aa4d	0.037027646
14	0xbdd6bf9c	-0.10485765
15	0x3dce019d	0.100589015
16	0xbdde2ce5	-0.10848407
17	0xbc994654	-0.018710293
18	0xbde24ebb	-0.11050173
19	0xbe754428	-0.23951781
20	0x3df78775	0.12086383
21	0xbe3d6337	-0.18494879
22	0x3dfce23d	0.12347839
23	0xbd61ff8a	-0.05517534
24	0x3e890052	0.26758057
25	0xbdf0221a	-0.11725254
26	0xbce94d5d	-0.028479272
27	0xbc0a2cc4	-0.0084335245
28	0xbc80d85d	-0.01572817
29	0xbf79f72c	-0.9764278
30	0xbc921981	-0.017834427
31	0x3c6bbdd1	0.0143885175
32	0xbd9fc681	-0.078015335
33	0x3dd58bff	0.10427093
34	0xbe8dea25	-0.277177
35	0xbebfc4d2	-0.3745485
36	0x3dbb1005	0.09133915
37	0xbb683e0c	-0.0035437373
38	0xbd834e2b	-0.06411394
39	0x3df2cf46	0.118559405
40	0x3eb86a2c	0.36018503
41	0xbe3d4ade	-0.18485591
42	0xbf711ab7	-0.9418139
43	0x3c9e206d	0.019302571
44	0x3e1e02d6	0.1543077
45	0x3e23c968	0.15994799
46	0x3e8d48e4	0.27594674
47	0x3c79712f	0.015224739
48	0xbdf4e144	-0.119570285
49	0xbd02ccf8	-0.031933755
50	0x3d965a67	0.07341462
51	0xbe305703	-0.17220692
52	0xbe5d57e9	-0.21615566
53	0xbe4a3270	-0.19745803
54	0x3d99f85e	0.075180754
55	0xbd1440d5	-0.03619464
56	0xbe334857	-0.17508064
57	0xbe573c5a	-0.21019116
58	0x3e99d02b	0.30041632
59	0x3d0c3763	0.03423251
60	0xbe98906c	-0.29797685
61	0x3d1076f7	0.035269704
62	0xbd808caf	-0.06276833
63	0xbcac09c4	-0.02100075
64	0x3ba9f7a8	0.0051869936
65	0x3e36cc0a	0.17851272
66	0x3d81b10b	0.063325964
67	0x3dad688e	0.08467208
68	0xbdc57917	-0.09642237
69	0x3d9f7d6d	0.07787595
70	0xbe03d98c	-0.12875956
71	0xbeb0511d	-0.34436885
72	0xbf0b79b1	-0.5448256
73	0xbd3c6483	-0.045994293
74	0x3d317c09	0.04333118
75	0xbddbd235	-0.10733453
76	0x3e870ede	0.2637853
77	0x3d4bec1d	0.049785722
78	0x3ca7ee6c	0.02049943
79	0xbe27a68e	-0.1637213
80	0x3bc26f82	0.005933703
81	0x3e39c9c7	0.18143378
82	0xbe0ce5bc	-0.13759512
83	0x3e033db9	0.12816514
84	0x3da62572	0.08112611
85	0x3e1ce390	0.15321183
86	0xbee8fce0	-0.45505428
87	0x3debd13f	0.1151452
88	0xbe1687fe	-0.14700314
89	0x3d82a589	0.063792296
90	0x3e6a3316	0.2287105
91	0xbf4a1484	-0.78937554
92	0xbd9f9465	-0.07791976
93	0xbc47ec55	-0.012202342
94	0xbcf21033	-0.02954874
95	0xbe723566	-0.23653182
96	0xbec271cb	-0.37977442
97	0xbe2c8cc0	-0.16850567
98	0xbea4c4d2	-0.32181412
99	0x3e47a645	0.1949702
100	0xbd28e359	-0.04123244
101	0xbd9fbde7	-0.07799893
102	0xbd3c7e94	-0.04601915
103	0xbdbc7a5e	-0.09203027
104	0xbd1118ea	-0.03542415
105	0x3e213dc3	0.15746216
106	0xbefecfd3	-0.49767932
107	0x3d23e372	0.04001183
108	0xbd3feda8	-0.046857506
109	0x3db7d114	0.08975425
110	0x3e09ecfb	0.13469307
111	0x3e209c8a	0.15684715
112	0x3d8b838e	0.068122014
113	0xbf432aa0	-0.76236916
114	0xbdea2099	-0.11431999
115	0xbe231ea3	-0.15929656
116	0xbe6bc8d3	-0.23025827
117	0x3ea481ab	0.3213018
118	0xbe259460	-0.16169882
119	0xbdaeba14	-0.08531585
120	0x3dbe04eb	0.09278282
121	0x3e38bda4	0.18041092
122	0x3c7a6d32	0.015284823
123	0xbcab00fe	-0.020874497
124	0x3e1c2d6f	0.15251707
125	0xbbdc32f8	-0.006719943
126	0x3e50d85c	0.20395035
127	0x3eeaf179	0.45887354
128	0xbcc18754	-0.0236241
129	0xbd5f8d6f	-0.05457824
130	0xbe7cde12	-0.24694088
131	0x3f0a87e9	0.5411363
132	0xbe04fc00	-0.12986755
133	0xbed56ca5	-0.41684452
134	0x3bb2326c	0.0054381397
135	0xbe949b89	-0.29024914
136	0x3e0bc687	0.13649951
137	0xbe27038c	-0.16309947
138	0x3d168d9a	0.036756136
139	0xbe87b006	-0.26501483
140	0xbcee42cd	-0.029084587
141	0xbb0a9c8b	-0.0021150436
142	0x3e727fd7	0.2368158
143	0x3e6077f0	0.21920753
144	0x3d40d414	0.047077253
145	0x3c4015be	0.011723934
146	0x3e3770d2	0.17914131
147	0x3e15f061	0.14642479
148	0x3e91a831	0.28448632
149	0x3e3a25d8	0.18178499
150	0x3d04d1c7	0.03242662
151	0x3d15ad9c	0.03654252
152	0xbda7047f	-0.081551544
153	0x3e742b90	0.23844743
154	0xbda1e5bd	-0.07905147
155	0x3d49a81c	0.049232587
156	0xbdf1ce23	-0.118068956
157	0x3ea0c919	0.31403425
158	0x3dcf95ea	0.10136016
159	0x3d55c1f3	0.052186918
160	0xbf106ba9	-0.56414276
161	0x3d3b6b7c	0.045756802
162	0xbe27c710	-0.1638453
163	0xbf000e9b	-0.50022286
164	0x3e5c4c1f	0.21513413
165	0xbcfa7f9d	-0.030578429
166	0xbed80ed6	-0.4219882
167	0x3bf77809	0.007552151
168	0x3cb724fc	0.022356503
169	0xbe909ec6	-0.28246135
170	0x3ce69dac	0.028151356
171	0xbe751e14	-0.23937255
172	0x3cb9f147	0.022698058
173	0xbda2f510	-0.07956898
174	0xbd8f78ae	-0.0700544
175	0xbddcf439	-0.10788769
176	0xbd46e6d5	-0.048559982
177	0x3da93958	0.082628906
178	0x3f05c71e	0.52256954
179	0x3cb24c5b	0.021764925
180	0xbec000f8	-0.3750074
181	0xbcb9529c	-0.022622399
182	0xbd4d0017	-0.050048914
183	0xbe27848b	-0.16359155
184	0xbe5cbd40	-0.21556568
185	0x3dfccf2c	0.123442024
186	0xba88a6be	-0.001042567
187	0xbef78959	-0.48346975
188	0x3d9a74e2	0.07541825
189	0xbcd9b933	-0.026577568
190	0x3ea23395	0.3167998
191	0xbe2b5783	-0.16732602
192	0x3e3112ec	0.17292374
193	0x3eceb988	0.40375924
194	0x3d590193	0.052980017
195	0xbd3392c3	-0.043841135
196	0x3ea3383d	0.31878844
197	0x3c275ec9	0.01021547
198	0xbe186a09	-0.14884199
199	0xbcb6f502	-0.022333626
200	0xbcdcfd86	-0.026976358
201	0x3e83f9fd	0.25776663
202	0xbe80b230	-0.25135946
203	0xbd0c7eed	-0.034300733
204	0x3dc454d7	0.095864944
205	0xbdd9267f	-0.10603046
206	0x3cfa0e26	0.030524325
207	0x3e34f67d	0.17672153
208	0x3e1e46e4	0.1545673
209	0x3e50bea7	0.20385228
210	0x3d3a927f	0.045549866
211	0xbdaf4073	-0.085572146
212	0x3e1db4f6	0.15401062
213	0x3d99b453	0.07505097
214	0xbd25b8a0	-0.040459275
215	0x3ea2e58e	0.3181576
216	0xbe21ead7	-0.1581224
217	0xbde61711	-0.11234868
218	0xbbb636b0	-0.0055607185
219	0xbee24120	-0.4419031
220	0xbe03c82a	-0.12869325
221	0x3c65b891	0.014021055
222	0x3cc796cf	0.024363903
223	0xbd3b71e5	-0.045762915
224	0xbe1e728e	-0.15473387
225	0x3be4447a	0.006966171
226	0x3da9ab42	0.08284618
227	0xbc715d7f	-0.014731764
228	0x3de0d04e	0.10977231
229	0x3d23afd5	0.03996261
230	0xbe787caa	-0.24266306
231	0x3eaec4bc	0.3413447
232	0xbe36d0aa	-0.17853037
233	0xbe50f1ad	-0.20404692
234	0xbe2a6842	-0.16641334
235	0x3e02bf6a	0.12768331
236	0x3cbb07b9	0.02283083
237	0x3e42c636	0.19020924
238	0x3e0deead	0.13860579
239	0xbe0c0e20	-0.13677263
240	0xbe85e226	-0.261491
241	0x3d2c5714	0.04207523
242	0x3ce6ff89	0.02819802
243	0x3ed195fe	0.40934747
244	0x3ca7cedd	0.020484382
245	0x3eae238f	0.34011504
246	0xbdb26df1	-0.08712376
247	0xbe06794e	-0.13132212
248	0xbe7e2f90	-0.24822831
249	0x3daa05c0	0.08301878
250	0xbd8d3889	-0.06895549
251	0x3d6628c3	0.056191217
252	0x3d0b3c70	0.033993185
253	0xbe04f969	-0.12985767
254	0xbb810c1b	-0.0039382107
255	0x3e148295	0.14502938

linear2.bias f4 [128]
0	0x3da5f9c9	0.08104283
1	0xbca09283	-0.019601112
2	0xbba89aaa	-0.0051453905
3	0x3b878008	0.0041351356
4	0x3cac50d2	0.021034632
5	0xbcf10913	-0.029423272
6	0xbd8c3fa9	-0.0684808
7	0xbcb40e74	-0.021979548
8	0x3d3141a8	0.043275505
9	0xbd930f6b	-0.07180675
10	0xbbbfa260	-0.005848214
11	0x3c0716da	0.008245194
12	0xbdc7e902	-0.097612396
13	0x3cbc7cf9	0.02300881
14	0x3ab115b3	0.0013510495
15	0xb985bfd6	-0.00025510666
16	0xbd2bfe0a	-0.041990317
17	0x3c18d00b	0.009326945
18	0x3d296ec7	0.04136541
19	0xbc8da662	-0.017291252
20	0x3b95b138	0.0045682453
21	0xbd09d65f	-0.033651706
22	0x399096ba	0.0002757812
23	0xbc949622	-0.018137995
24	0xbbf62880	-0.007512152
25	0xbb5ae22f	-0.0033398976
26	0xbd39b3d6	-0.04533752
27	0xbcd32d75	-0.025778512
28	0xbc6311b7	-0.013859204
29	0xbd258cae	-0.040417366
30	0xbd32e075	-0.04367109
31	0xbcd7b8bd	-0.026333207
32	0x3adef33c	0.0017009745
33	0xbcfcfa47	-0.03088106
34	0xbd666b7a	-0.05625484
35	0xbc91dea6	-0.017806362
36	0x3d814b67	0.0631321
37	0x3c752a7f	0.014963745
38	0xbca334bd	-0.019922609
39	0x3c00aed3	0.007854181
40	0x3d8fd69c	0.07023355
41	0xba26624f	-0.00063470466
42	0x3cd7d61a	0.026347209
43	0xbd812e0e	-0.06307612
44	0xbc0346e7	-0.00801251
45	0xba1bb477	-0.0005939672
46	0xbcd62b98	-0.026143834
47	0x3cb0a29f	0.021561919
48	0xbc6c8df4	-0.014438141
49	0x3cd225a4	0.025652714
50	0xbc5178d9	-0.01278516
51	0x3cbe8971	0.023258897
52	0x3d86a883	0.0657511
53	0xb9fd7aef	-0.00048347513
54	0xbdb4a106	-0.08819775
55	0x3d78dd36	0.06075784
56	0x3ca473e7	0.020074798
57	0x3b8b9327	0.0042594853
58	0xbc18f356	-0.00933536
59	0xbba85f49	-0.005138312
60	0xbc2597cb	-0.010106991
61	0xbd871714	-0.06596199
62	0xb90c2240	-0.000133642
63	0xbc0aae95	-0.008464475
64	0xb9f85be2	-0.00047370704
65	0xbd712bb4	-0.05887957
66	0xbc0028ac	-0.007822197
67	0x3abbbad8	0.0014322652
68	0xbb053b42	-0.002032951
69	0xbba34c38	-0.004983451
70	0x3c734ce3	0.014849874
71	0xbd4ead4a	-0.05045823
72	0xbae48e88	-0.0017437497
73	0xbc4f7c65	-0.012663935
74	0xbc63b0c4	-0.013897125
75	0x3bd18029	0.0063934517
76	0xbd6ff8a2	-0.058586724
77	0xbd3ed4c5	-0.04658963
78	0x3c175cc3	0.009238425
79	0x3c9f5d8b	0.019453784
80	0xbc99e67d	-0.018786663
81	0xbb8e8596	-0.004349421
82	0x3bb9fdf6	0.0056760265
83	0xbc4e4515	-0.012589713
84	0xbd976683	-0.073925994
85	0x3c486408	0.012230881
86	0x3cfac7f7	0.030612929
87	0xbc3c5903	-0.011495831
88	0xbd9c8385	-0.07642273
89	0x3cd247ff	0.025669096
90	0xbd3fd16c	-0.04683058
91	0xbd3a5c08	-0.045497924
92	0xbd0e8999	-0.034799192
93	0xbd532f97	-0.051559057
94	0xbd44735f	-0.04796159
95	0x3c17afcb	0.009258221
96	0x3d2c1bf8	0.04201886
97	0xbc7333d2	-0.014843898
98	0xbd269118	-0.040665716
99	0x3bb779ff	0.00559926
100	0x3ce837fd	0.02834701
101	0x3c461b68	0.012091495
102	0x3cf5801d	0.029968316
103	0x3c8681c5	0.0164193
104	0x3bcaf707	0.0061939987
105	0xbbfe2a63	-0.0077565177
106	0x3cc67082	0.02422357
107	0x3c86079d	0.016361052
108	0xbaa866f2	-0.0012848063
109	0xbccd423e	-0.025056
110	0xbc5a62ad	-0.01332919
111	0x3bff0843	0.0077829673
112	0xbd0c0185	-0.034181137
113	0xbc650143	-0.013977352
114	0xbb707f7f	-0.0036697087
115	0x3d0128ea	0.03153316
116	0xbc4d7ce9	-0.012541988
117	0x3ba76bc7	0.0051092836
118	0xbd3b2a5f	-0.045694705
119	0x3d014d25	0.03156771
120	0xbbda47d2	-0.0066613937
121	0x3cc5ebb4	0.024160244
122	0x3dd791bd	0.10525844
123	0x3da1e03b	0.07904097
124	0xbc2d5348	-0.010578938
125	0xbb6b91aa	-0.0035944977
126	0xbd8292c6	-0.06375651
127	0x3c10b92b	0.00883321

linear3.weight f4 [64, 128]
0	0xbd68c0fd	-0.056824673
1	0xbdb10ff1	-0.08645619
2	0xbc1374f8	-0.0090000555
3	0x3cd55629	0.02604206
4	0x3b9f8978	0.0048686825
5	0xbcc6df14	-0.024276294
6	0xbd7d0516	-0.06177243
7	0x3c769c58	0.015051924
8	0x3c4926e0	0.012277335
9	0xbc8280b8	-0.015930519
10	0x3c88ef8c	0.016715787
11	0x3d34f9ed	0.04418366
12	0xbd68f82f	-0.05687731
13	0xbb80e429	-0.003933449
14	0xbd4a2321	-0.049349908
15	0xbbad2c50	-0.0052848235
16	0xba34255d	-0.00068720226
17	0x3c664970	0.014055595
18	0x3d454a1a	0.048166372
19	0xbd2e7008	-0.04258731
20	0xbdd1131d	-0.10208724
21	0x3bc3d357	0.0059761214
22	0x3d2b5c2a	0.04183594
23	0xbbb88241	-0.005630762
24	0x3d5b5093	0.05354364
25	0xbd8a2b68	-0.0674656
26	0xbda90930	-0.082537055
27	0xbc0514fc	-0.008122679
28	0xbd29ac2d	-0.041423965
29	0xbd153036	-0.03642293
30	0x3d95aebc	0.073087186
31	0x3d86082b	0.06544527
32	0xbda8cca2	-0.082421556
33	0xbd9e77c5	-0.07737688
34	0xbd09297a	-0.03348682
35	0xbd65a91d	-0.056069482
36	0x3cc4acf2	0.024008248
37	0xbcae0e6b	-0.02124711
38	0x3beaf07c	0.0071697813
39	0xbd84d310	-0.064855695
40	0xbd7758f5	-0.06038757
41	0x3c75945e	0.014988987
42	0xbd7e0f46	-0.062026285
43	0xbd9d301f	-0.07675194
44	0x3d3d33d0	0.04619199
45	0xbdb30fca	-0.08743246
46	0x3d0d9670	0.034567297
47	0xbd858f25	-0.06521443
48	0xbca5fa7f	-0.020261047
49	0xbd8452d5	-0.064611115
50	0x3d5f47bc	0.05451177
51	0xbde12415	-0.1099321
52	0x3c064ec5	0.008197491
53	0xbdb492a9	-0.08817036
54	0x3c8dc26e	0.017304625
55	0xbd53d418	-0.05171594
56	0xbd6114b9	-0.054951403
57	0x3dbc9aed	0.09209237
58	0x3bdd90ef	0.006761662
59	0x3c8f9415	0.017526666
60	0x3d289b18	0.041163534
61	0x3d83c855	0.06434695
62	0x3d92d013	0.07168593
63	0xbdbb8473	-0.09156122
64	0xbd3c08d5	-0.04590686
65	0xbc71a10d	-0.01474787
66	0xbd9c2286	-0.07623772
67	0x3d612987	0.054971244
68	0x3c14f713	0.00909211
69	0xbd36cd32	-0.044629283
70	0xbda7b3c3	-0.08188584
71	0xbdb40571	-0.087901
72	0x3c1c8001	0.009552003
73	0xbc7dc668	-0.015489198
74	0x3af35dff	0.0018567442
75	0xbd13e193	-0.036103796
76	0xbda88f81	-0.08230496
77	0x3c66ea40	0.0140939355
78	0x3d10aaa5	0.03531899
79	0xbc14ff6c	-0.0090941
80	0xbd2113e8	-0.039325625
81	0x3d8da6e1	0.06916595
82	0xbbcb9e90	-0.0062139705
83	0xbdb152dc	-0.08658382
84	0xbc871629	-0.016490059
85	0x3d73f545	0.05956008
86	0x3d7f3c31	0.062313262
87	0x3adc365d	0.001680087
88	0x3d88cd47	0.066797785
89	0xbd959c41	-0.07305194
90	0xbda14a2c	-0.07875475
91	0xbd404b88	-0.046947032
92	0x3cd0c5ac	0.025484882
93	0x3cb004ac	0.021486603
94	0x3d32c12a	0.043641247
95	0xbd65aed0	-0.056074917
96	0x3c84fe6d	0.0162346
97	0x3d8559b6	0.06511252
98	0x3d72db30	0.059291065
99	0x3cf6014e	0.030029919
100	0x3d3c71f6	0.04600712
101	0x3baca4a3	0.0052686497
102	0xbdc0840e	-0.094001874
103	0xbd3d5093	-0.04621942
104	0x3b88244f	0.004154719
105	0xbcefcce4	-0.029272504
106	0xbdb5a662	-0.08869626
107	0x3d4ef5c1	0.050527338
108	0xbd45dcbf	-0.048306223
109	0x3d0f0601	0.034917835
110	0x3ced1cd4	0.02894441
111	0x3ba6c26a	0.005089094
112	0xbd130450	-0.035892785
113	0x3d1bcd88	0.038037807
114	0x3d35aee9	0.04435626
115	0x3d1e32e4	0.03862275
116	0xbd4af6ae	-0.04955166
117	0xbd5b571d	-0.053549875
118	0xbd318b20	-0.04334557
119	0xbdcbe376	-0.09955494
120	0xbd2ac40c	-0.04169087
121	0x3cdca370	0.026933402
122	0xbd92955e	-0.07157396
123	0xbd4c2e12	-0.049848624
124	0xbcbf10bd	-0.023323411
125	0xbd80bfa1	-0.0628655
126	0x3daf2a0b	0.08552941
127	0xbd19de44	-0.037565485
128	0x3be533a1	0.00699468
129	0x3d7983f2	0.06091685
130	0xbd9afe57	-0.07568043
131	0xbd9e9f4f	-0.077452295
132	0xbd5ebd12	-0.05437953
133	0xbd6bd5bf	-0.05757689
134	0x3b5984a0	0.0033190623
135	0xbd4280bc	-0.047486052
136	0xbd89fc09	-0.06737525
137	0xbd6e9f76	-0.058257543
138	0x3d546abc	0.051859602
139	0x3d372c0e	0.04471975
140	0xbd0b3067	-0.033981707
141	0xbd9b7b7f	-0.075919144
142	0xbd16210d	-0.036652613
143	0x3d882c87	0.06649118
144	0x3ce4a8b0	0.027912468
145	0x3da92911	0.08259786
146	0xbd0c3218	-0.03422746
147	0xbcd0f824	-0.025508948
148	0x3d63bd9a	0.05560074
149	0x3d9984b7	0.074960165
150	0xbbf98d20	-0.0076157004
151	0x3d3cba6a	0.046076216
152	0x3d424a97	0.047434416
153	0xbda4cd79	-0.08047003
154	0xbd42db58	-0.047572464
155	0xbda311a8	-0.07962352
156	0xbce9b526	-0.028528761
157	0x3d23bc27	0.039974358
158	0xbc02aa08	-0.007975109
159	0x3d131ab4	0.035914138
160	0x3d150a68	0.036386877
161	0x3d146ba9	0.036235485
162	0xbda32585	-0.07966141
163	0x3d559d0f	0.052151736
164	0xbdb9bed7	-0.09069603
165	0x3d7d1db2	0.061795898
166	0xbb0c6da1	-0.0021427649
167	0xbd27a483	-0.040928375
168	0xbd2f1a60	-0.042749763
169	0x3da81839	0.08207745
170	0x3d44b5c1	0.048024897
171	0x3d829c47	0.06377464
172	0xbc849c34	-0.016187765
173	0x3d519822	0.051170476
174	0x3d01f8e4	0.0317315
175	0x3b74bf2f	0.00373454
176	0xbdab2a95	-0.08357731
177	0x3d20b674	0.0392365
178	0x3d1aed7d	0.037824143
179	0x3c8338fc	0.016018383
180	0xbc34326b	-0.010998349
181	0xbd7bc7cc	-0.061469838
182	0xbd4c7213	-0.049913477
183	0x3d7342ee	0.05939
184	0xbd488db9	-0.048963282
185	0x3d70f3da	0.058826305
186	0xbdb6d01e	-0.08926414
187	0xbd839469	-0.06424791
188	0xbc2795d3	-0.010228592
189	0xbcd731ce	-0.026268866
190	0xbcd8dd71	-0.026472779
191	0xbd78acca	-0.06071166
192	0xbdb1fbbe	-0.08690594
193	0xbdb031a3	-0.086032175
194	0x3b309087	0.0026941614
195	0x3da741be	0.08166836
196	0x3c1858a3	0.009298476
197	0xbd749982	-0.05971671
198	0xbd90ab9a	-0.070639804
199	0x3d42af75	0.04753061
200	0xbabd7400	-0.0014454126
201	0x3b61f480	0.0034478009
202	0xbcc0ebc4	-0.023549922
203	0xbdc935fe	-0.09824751
204	0xbd80d460	-0.06290507
205	0xbd0ec0bf	-0.034851786
206	0xbd3aadfa	-0.045576073
207	0x3be23125	0.006902831
208	0xbdaac791	-0.083388455
209	0x3c9e2bf4	0.019308068
210	0x3c0224f8	0.007943384
211	0x3c5d1567	0.013493872
212	0x3b70e8bd	0.0036759817
213	0xbda8556a	-0.082194164
214	0x3d9230ce	0.07138215
215	0x3d2604c3	0.040531885
216	0x3d566aea	0.052348055
217	0xbd279197	-0.04091033
218	0xbcb109ac	-0.021611057
219	0xbca8e344	-0.020616181
220	0xbd2035e0	-0.03911388
221	0xbda109f6	-0.07863228
222	0x3d6b9e25	0.057523865
223	0x3b88b04b	0.0041714064
224	0xbd3a3ee8	-0.04547015
225	0xbd34225e	-0.043978088
226	0xbdb3ffa9	-0.08788998
227	0xbce6a3e2	-0.028154317
228	0x3c929228	0.017891958
229	0xbd580c86	-0.05274632
230	0xbd87de03	-0.06634142
231	0x3d965473	0.07340326
232	0x3b804e33	0.003915572
233	0xbb88767c	-0.004164515
234	0xbd0df34e	-0.03465586
235	0xbc7632a2	-0.01502672
236	0x3cca7004	0.024711616
237	0xbcd3e25c	-0.025864772
238	0x3cc6f88d	0.02428844
239	0x3d4f1bba	0.05056355
240	0x3c9d7ac5	0.01922358
241	0xbd684301	-0.056704525
242	0xbda1dea8	-0.079037964
243	0x3cd34981	0.025791885
244	0xbd121de2	-0.03567303
245	0x3d88b11f	0.06674408
246	0x398e1951	0.00027103213
247	0xbdaa37fb	-0.08311459
248	0xbd95331e	-0.072851405
249	0xbcd1e37d	-0.02562117
250	0xbd3168f7	-0.043312993
251	0xbc6778c0	-0.01412791
252	0x3c574815	0.013139744
253	0xbc86c914	-0.016453303
254	0xbc63c978	-0.013903014
255	0xbc369058	-0.011142813

linear3.bias f4 [64]
0	0xbdaf4ba4	-0.08559349
1	0xbd3b8ba9	-0.045787487
2	0x3c3ea566	0.011636114
3	0x3c74590c	0.014913809
4	0xbdad76a4	-0.084698945
5	0x3ca17d8b	0.019713184
6	0xbd7ffe3f	-0.062498327
7	0x3e44a675	0.19204123
8	0xbb062ecc	-0.002047467
9	0x3c7ef53a	0.015561396
10	0xbd2bf15b	-0.04197822
11	0x3dd8d174	0.10586825
12	0x3ae7a4fb	0.0017673069
13	0xbcea6f98	-0.028617665
14	0x3d82f8d8	0.063951194
15	0xbd67ace9	-0.056561384
16	0x3c1a562b	0.009419958
17	0xba541779	-0.0008090656
18	0x3cbd20cc	0.023086928
19	0x3d9968b0	0.07490671
20	0x3b5b0ca1	0.0033424275
21	0xbd90b1ce	-0.070651636
22	0x3a9f05b5	0.0012132438
23	0xbe0fa2c5	-0.14026935
24	0xbd6b7cc8	-0.057492048
25	0x3dc8984c	0.09794673
26	0x3e2cb816	0.16867098
27	0x3d8e3adf	0.069448225
28	0x3dec963a	0.11552091
29	0x3cc77582	0.024348024
30	0x3d2040dc	0.039124355
31	0xbdf4c105	-0.11950878
32	0xbc711a72	-0.014715778
33	0xbd56252a	-0.052281536
34	0xbe09bf32	-0.13451841
35	0x3a993293	0.0011688046
36	0xbcb21f43	-0.021743422
37	0x3ca1da33	0.019757366
38	0x3d03bd89	0.032163177
39	0x3d226e6c	0.039656088
40	0x3d86820b	0.065677725
41	0xbd8f35d1	-0.069926865
42	0xbdd4ff78	-0.10400289
43	0xbdd10526	-0.1020606
44	0xbd65d5f9	-0.056112263
45	0x3da73439	0.081642576
46	0x3d95c2f7	0.07312577
47	0x3c16565a	0.009175861
48	0x3cad8bbe	0.021184798
49	0xbdc605fe	-0.09669112
50	0xbd7f7337	-0.062365737
51	0x3d19fa14	0.03759201
52	0x3c5c7a8a	0.01345695
53	0x3cf056c6	0.029338252
54	0x3e178226	0.14795741
55	0x3e572e9f	0.21013878
56	0xbcaa3399	-0.020776557
57	0x3cd9969b	0.026561072
58	0xbd6c195b	-0.05764137
59	0x3e1d3b2c	0.15354604
60	0xbace715d	-0.0015750338
61	0xbd868776	-0.06568806
62	0x3dfb79a2	0.12279059
63	0x3d880b12	0.066427365

linear4.weight f4 [32, 64]
0	0xbd5f78e0	-0.054558635
1	0x3d95393a	0.07286306
2	0x3d956a84	0.07295707
3	0xbce51c46	-0.027967583
4	0xbc755f50	-0.014976338
5	0x3d3889ac	0.04505317
6	0xbdb874da	-0.09006663
7	0x3d8628cf	0.06550752
8	0x3db508b6	0.08839552
9	0xbd92a8be	-0.07161091
10	0xbd6c866c	-0.057745382
11	0xbe0c554f	-0.13704418
12	0xbd82e483	-0.063912414
13	0xbdf9c4ad	-0.12195716
14	0x3d42d5b6	0.047567092
15	0x3d6f5d74	0.058438733
16	0xbd8071ec	-0.06271729
17	0xbdf4d9bc	-0.11955592
18	0xbdd99384	-0.106238395
19	0x3d9b3675	0.07578746
20	0x3d86b526	0.0657752
21	0xbb1b58c0	-0.0023704022
22	0xbddb67fc	-0.10713193
23	0x3dadea53	0.084919594
24	0xbc21b2d0	-0.009869292
25	0x3dc27434	0.0949482
26	0xbd6ef087	-0.058334854
27	0xbd65f3d7	-0.056140747
28	0x3dbd648e	0.09247695
29	0x3d6b312c	0.05741994
30	0xbde33303	-0.11093714
31	0x3dc1e7d6	0.09468047
32	0xbde025c3	-0.109447025
33	0xbd9bce0e	-0.07607661
34	0x3d859276	0.06522076
35	0xbdebc302	-0.11511804
36	0xbd2ed453	-0.042682957
37	0xbbe071d7	-0.0068495083
38	0x3c914d60	0.01773709
39	0xbe048207	-0.12940226
40	0x3c37070b	0.011171113
41	0x3d40b15d	0.047044147
42	0x3db1ec8c	0.08687696
43	0xbdbfcfbe	-0.093657956
44	0xbdb3ef80	-0.087859154
45	0xbcee1bd7	-0.02906601
46	0xbd122b4a	-0.035685815
47	0x3ca9c406	0.020723354
48	0xbdd426c0	-0.103589535
49	0xbdde1b04	-0.108449966
50	0x3c80e3c0	0.0157336
51	0xbdf1b8a2	-0.11802794
52	0x3c7c0640	0.0153823495
53	0xbdbabe89	-0.09118373
54	0x3ddb1b1a	0.106985286
55	0x3dd19800	0.1023407
56	0x3da72b9e	0.08162616
57	0x3d489528	0.04897037
58	0x3dcb56b8	0.0992865
59	0x3d57d1fd	0.052690495
60	0x3d2ce63c	0.042211756
61	0x3d113e54	0.03545983
62	0x3d652ac4	0.055948988
63	0xbdc5bb57	-0.09654873
64	0x3d014264	0.031557456
65	0xbc261049	-0.010135719
66	0xbd82c7fd	-0.06385801
67	0xbc0fa6b9	-0.008767777
68	0xbd1a2870	-0.03763622
69	0xbdd6a17a	-0.10480018
70	0xbca93910	-0.020657092
71	0xbd3435f4	-0.043996766
72	0xbd8f778d	-0.070052244
73	0xbde59020	-0.1120913
74	0xbdc85e4c	-0.09783611
75	0xbd749982	-0.05971671
76	0x3d6ae3b6	0.05734607
77	0xbd6fa5e4	-0.058507815
78	0xbe06490e	-0.13113806
79	0x3de1320a	0.10995872
80	0xbe0b91d5	-0.1362985
81	0xbda1f10f	-0.079073064
82	0xbdd12221	-0.10211588
83	0xbcc338d6	-0.023830812
84	0xbde24acd	-0.11049423
85	0xba6ef000	-0.0009114742
86	0xbddfc990	-0.10927117
87	0xbde207b4	-0.110366255
88	0xbcc74dd9	-0.024329113
89	0x3c8ab588	0.016932264
90	0x3dbccf8d	0.09219275
91	0x3c98de29	0.018660622
92	0x3d0bb32a	0.03410641
93	0x3cd89ede	0.026442941
94	0x3dae0852	0.08497681
95	0xbcd8d040	-0.026466489
96	0xbde3fdf8	-0.11132425
97	0x388145e8	6.1642204e-05
98	0x3cd44af0	0.02591464
99	0x3dcf25ed	0.10114656
100	0xba046973	-0.00050511135
101	0xbd899b21	-0.067190416
102	0xbdc6b68b	-0.09702786
103	0xbd9f637d	-0.07782648
104	0xbdafee8c	-0.08590421
105	0x3da075a8	0.07834941
106	0x3d0328e4	0.03202142
107	0x3debd8bc	0.11515948
108	0xbd447d5c	-0.047971115
109	0x3dc7ee01	0.097621925
110	0xbd9e1485	-0.077187575
111	0xbde324c3	-0.11090996
112	0xbda7d8eb	-0.08195671
113	0x3d4817c3	0.048850786
114	0xbdaaa3bf	-0.08332013
115	0x3d4cb106	0.04997351
116	0x3d982cf8	0.07430452
117	0x3c7b74fe	0.015347717
118	0xbdc2fc1e	-0.09520744
119	0xbdef46e2	-0.11683442
120	0xbda24592	-0.07923426
121	0x3dc56199	0.09637756
122	0x3d35d15e	0.04438912
123	0x3d36bd97	0.0446144
124	0xbd277a13	-0.040887903
125	0xbd2cbb60	-0.042170882
126	0xbd704bbc	-0.058665976
127	0x3d94a1ab	0.07257398
128	0x3d93ed6d	0.0722302
129	0xbd0a7866	-0.033806227
130	0xbdac36e0	-0.08408904
131	0x3ded7949	0.11595399
132	0xbda894c2	-0.08231498
133	0x3d71f6e8	0.05907336
134	0x3d905b18	0.07048625
135	0x3dab7129	0.08371193
136	0xbb8c0eb2	-0.0042742128
137	0xbd8c73f8	-0.06858057
138	0x3d8cf44a	0.06882532
139	0x3b38c3e9	0.0028192943
140	0xbe202737	-0.1563996
141	0x3dceca10	0.10097134
142	0x3e06e545	0.13173397
143	0xbd80fc5b	-0.06298133
144	0x3d38ef70	0.04515022
145	0xbe132dd5	-0.14372952
146	0x3e177af3	0.14792995
147	0x3dee02d2	0.11621632
148	0x3d9f5ac4	0.07780984
149	0xbcf69dbc	-0.03010451
150	0x3d16e9cc	0.03684406
151	0xbe3c8e7d	-0.1841373
152	0xbd72e35d	-0.05929886
153	0x3d8a154b	0.067423426
154	0x3e1e4353	0.1545537
155	0x3e18f513	0.14937238
156	0x3b3b5feb	0.0028591107
157	0x3db342c8	0.08752972
158	0x3db1ab9d	0.08675311
159	0xbcbe721e	-0.023247775
160	0xbdafce49	-0.08584268
161	0xbb191748	-0.0023359824
162	0xbd8ef34c	-0.06979999
163	0x3e810656	0.25200146
164	0x3ad51e8c	0.0016259714
165	0x3cfedbfa	0.031110752
166	0xbe8c19f3	-0.27363548
167	0xbdda436d	-0.10657392
168	0x3dc2b40d	0.09506998
169	0xbda2a011	-0.079406865
170	0xbdceedf0	-0.10103977
171	0xbd5a8a5a	-0.0533546
172	0xbda783b2	-0.08179416
173	0x3df30e28	0.118679345
174	0x3ea49a07	0.32148764
175	0xbe0bdc26	-0.13658199
176	0xbb92326f	-0.0044615786
177	0xbd55030f	-0.05200487
178	0xbd8b2c23	-0.06795528
179	0x3c7e0822	0.015504869
180	0xbdd43964	-0.10362509
181	0x3d4ae848	0.049537927
182	0x3dc26f76	0.09493916
183	0x3e43c6f0	0.19118857
184	0xbd56f828	-0.052482754
185	0xbda98df4	-0.082790285
186	0x3c5b4d15	0.013385077
187	0xbd4d1eb2	-0.0500781
188	0x3d7f1e41	0.06228471
189	0xbcb57744	-0.022151597
190	0x3db7a14f	0.08966314
191	0xbdbb99b1	-0.09160174
192	0xbdec8cac	-0.115502685
193	0x3d91de76	0.07122509
194	0xbd003bf8	-0.03130719
195	0xbd8f52e0	-0.06998229
196	0x3dae3274	0.08505717
197	0xba8f8938	-0.0010950929
198	0xbdf0be0c	-0.117549986
199	0xbcb2776a	-0.021785457
200	0xbd013fac	-0.031554863
201	0x3d6779cc	0.05651264
202	0x3d6d0c74	0.057873204
203	0xbda09aae	-0.07842003
204	0x3db1ce4e	0.086819276
205	0xbd8755f6	-0.066081926
206	0x3d6702ac	0.056399032
207	0xbda9a548	-0.08283478
208	0xbd04efbd	-0.032455195
209	0xbd899446	-0.06717734
210	0xbcf7fb48	-0.030271187
211	0xbdff3863	-0.12461927
212	0xbdba02a0	-0.09082532
213	0x3cbe2510	0.023211032
214	0x3d820bdd	0.06349919
215	0x3e4834e6	0.19551429
216	0xbdc45908	-0.09587294
217	0x3df746e3	0.120740674
218	0xbd12328a	-0.03569273
219	0xbe000f62	-0.12505868
220	0xbc213860	-0.009840101
221	0x3d80dc24	0.062919885
222	0x3d9c354b	0.07627352
223	0x3d5459a4	0.0518433
224	0xbe0cabb3	-0.13737373
225	0xbdfdac72	-0.12386407
226	0xbac55b80	-0.0015057176
227	0xbd501506	-0.0508013
228	0xbe0cc3d4	-0.13746578
229	0xbd885a69	-0.06657869
230	0xbdd64224	-0.10461834
231	0x3cde7212	0.027154002
232	0xbddcf85b	-0.107895575
233	0xbcc5c42e	-0.024141397
234	0xbc9e1df8	-0.0193014
235	0x3d99a42c	0.075020164
236	0xbb52a300	-0.0032140613
237	0x3cfab808	0.030605331
238	0xbd30d0e8	-0.04316798
239	0x3dabd583	0.083903335
240	0x3ce7a6a0	0.028277695
241	0xbd917bc8	-0.071036875
242	0xbdce48ec	-0.100725025
243	0x3d6e0430	0.058109462
244	0x3dc64b34	0.096823126
245	0xbd8e72e8	-0.069555104
246	0xbe172af3	-0.14762478
247	0x3c5ed802	0.013601305
248	0xbdd3d374	-0.10343066
249	0x3d93fe90	0.07226288
250	0xbd1df560	-0.038564086
251	0x3d7d576c	0.06185095
252	0x3bd2d635	0.006434227
253	0x3d5f1a44	0.05446841
254	0x3d0f51e9	0.034990225
255	0xbdebd50d	-0.115152456

linear4.bias f4 [32]
0	0xbdf2f1ac	-0.118625015
1	0x3bc95d3b	0.006145147
2	0x3e96f62d	0.29484692
3	0xbd693f7b	-0.056945305
4	0x3e04cc96	0.12968668
5	0xbdb0963a	-0.086224034
6	0x3cf8c216	0.030365985
7	0xbe3a2c1f	-0.18180893
8	0xbd334d65	-0.04377498
9	0xbe08e5c3	-0.13368897
10	0xbd21fb37	-0.039546218
11	0x3da166f3	0.07880964
12	0xbd91c76d	-0.071181156
13	0xbded91a6	-0.11600046
14	0xbe102baf	-0.14079164
15	0xbda78e2f	-0.08181416
16	0xbc901cc5	-0.017591843
17	0xbca014de	-0.0195412
18	0x3d320d40	0.043469667
19	0x3e91723a	0.2840746
20	0x3ebf9c5b	0.37423977
21	0x3daa2368	0.083075345
22	0xbda80566	-0.08204155
23	0xbd251400	-0.040302277
24	0x3cb6b345	0.02230228
25	0x3ce23b65	0.027616212
26	0x3e802a51	0.25032285
27	0x3d79f171	0.061021272
28	0x3e1a2eb8	0.15056884
29	0x3eddf94a	0.43354255
30	0x3d7d592c	0.06185262
31	0x3d05a6b8	0.0326297

linear5.weight f4 [6, 32]
0	0xbdc65015	-0.09683243
1	0x3e028368	0.1274544
2	0xbe99ad46	-0.3001501
3	0x3e0f487d	0.13992496
4	0xbd283ea2	-0.041075356
5	0x3e6a98fe	0.22909924
6	0x3dbf5a93	0.093434475
7	0x3e25d269	0.16193546
8	0x3ddf43a2	0.10901572
9	0xbc9702ee	-0.018434014
10	0x3c9fd27c	0.019509546
11	0xbd8c1e91	-0.068417676
12	0x3df17ca0	0.117913485
13	0x3d870cd9	0.06594247
14	0xbc9904e8	-0.018679097
15	0x3d2ddf7c	0.04244946
16	0x3d3ea0cd	0.04654007
17	0x3e0179be	0.12644097
18	0xbe649fbd	-0.2232656
19	0xbde44ec4	-0.11147836
20	0xbec32ac3	-0.38118562
21	0xbddf87b2	-0.10914554
22	0x3ddc7657	0.10764759
23	0x3e39a5ac	0.18129605
24	0xbd6bc086	-0.05755665
25	0x3cc40b1c	0.023931079
26	0xbead3252	-0.33827454
27	0x3cb8f727	0.022578789
28	0xbe71641e	-0.23573348
29	0xbee3fe7d	-0.44530097
30	0xbc8bf235	-0.017083267
31	0xbc4091a1	-0.011753471
32	0x3c619aad	0.013769788
33	0x3c1f094a	0.0097068045
34	0x3d52fe52	0.05151207
35	0xbdd5b07f	-0.104340546
36	0x3ca0177b	0.019542446
37	0xbe338ce8	-0.1753422
38	0x3e1a7749	0.15084566
39	0x3d9c61cc	0.07635841
40	0xbddf7f28	-0.10912925
41	0xbd98a0d5	-0.07452551
42	0xbcb0a1d1	-0.021561535
43	0xbd741280	-0.059587955
44	0x3dd53d7c	0.10412118
45	0xbe0736a8	-0.13204443
46	0xbe1fbbc5	-0.15598972
47	0x3e71023f	0.23536013
48	0xbdd89025	-0.105743684
49	0xbe5affd2	-0.2138665
50	0x3e5611a0	0.20905161
51	0xbe8f2a9c	-0.27962196
52	0xbd1b4d2f	-0.037915405
53	0x3e523d9c	0.20531315
54	0x3db9e692	0.09077181
55	0xbe7c10d4	-0.24615794
56	0x3e3ca945	0.18423946
57	0xbd906e34	-0.070522696
58	0x3e2da6d6	0.16958174
59	0x3d1a79d1	0.03771383
60	0x3e99cda8	0.30039716
61	0x3ccff6a9	0.025386171
62	0xbd948044	-0.07251027
63	0xbe715840	-0.23568821
64	0x3de11ce3	0.10991838
65	0x3ca92775	0.020648697
66	0x3e0ea4b3	0.13930015
67	0xbd90c274	-0.07068339
68	0xbe2a83f5	-0.166519
69	0xbcdbe2ff	-0.026841639
70	0x3dae56d6	0.085126564
71	0xbd67648f	-0.056492385
72	0xbe02605b	-0.12732069
73	0xbe2de6ff	-0.1698265
74	0xbe309347	-0.17243682
75	0x3d4b47b6	0.049628936
76	0xbbc84431	-0.0061116447
77	0x3d5ce8d0	0.053932965
78	0xbc0da55d	-0.008645383
79	0x3ca8b539	0.020594226
80	0x3dd71b1b	0.10503217
81	0x3d7b743b	0.061390143
82	0xbe5a7de9	-0.21337093
83	0x3cf66d15	0.030081311
84	0xbb985c82	-0.0046496997
85	0x3cceaaba	0.025227893
86	0xbd077ef8	-0.03308007
87	0xbd37ea40	-0.044901133
88	0x3e906c32	0.28207546
89	0x3e2225c8	0.15834725
90	0x3e1ea73f	0.15493487
91	0xbd3f9f78	-0.04678294
92	0x3b5f7aa9	0.003410021
93	0xbe54862e	-0.2075431
94	0xbdc49e1d	-0.0960047
95	0xbdd660c9	-0.10467679
96	0x3d7e198f	0.062036093
97	0x3c8f7be1	0.017515125
98	0x3e380996	0.17972407
99	0xbdd55853	-0.10417237
100	0x3e8ed13e	0.27894014
101	0x3e81a5fe	0.25321954
102	0xbdd35c9c	-0.10320398
103	0x3dea5b3a	0.11443181
104	0x3de9e18c	0.11419973
105	0x3c6d1e29	0.014472523
106	0xbd4cfd98	-0.050046533
107	0xbe2a0c37	-0.16606222
108	0x3de84b3f	0.11342477
109	0x3d8a2930	0.06746137
110	0xbdb31e68	-0.08746034
111	0xbd1361ef	-0.03598207
112	0xbe0f3c69	-0.13987888
113	0xbdc4415c	-0.09582779
114	0xbe98dce8	-0.29856038
115	0xbd4b9ea6	-0.049711846
116	0xbd5da1b9	-0.05410931
117	0xbe85bce0	-0.26120663
118	0x3e270729	0.16311325
119	0x3ede34c7	0.4339964
120	0xbe20aaaf	-0.1569011
121	0x3db50ee0	0.08840728
122	0x3e3e5f81	0.1859112
123	0xbdea7643	-0.11448338
124	0x3de7785b	0.11302253
125	0x3d51d376	0.051227055
126	0xbe0238da	-0.12717
127	0xbd9fd770	-0.07804763
128	0xbe0be8a6	-0.13662967
129	0xbd6f6f43	-0.058455717
130	0xbe5a394a	-0.21310917
131	0xbc2e3991	-0.010633842
132	0x3d483c36	0.048885547
133	0xbde62cb2	-0.11238994
134	0xbd940f96	-0.07229535
135	0x3e8d64b9	0.27615908
136	0x3dcbe5f6	0.09955971
137	0x3d88e6ba	0.066846326
138	0xbdde75dd	-0.108623244
139	0xbe982bae	-0.29720825
140	0xbe04dc94	-0.12974769
141	0x3df15237	0.11783259
142	0x3cf00b95	0.029302398
143	0xbe2bf191	-0.16791369
144	0xbdeac10b	-0.11462601
145	0x3e635cfd	0.22203441
146	0xbd519e50	-0.05117637
147	0x3ce2b3f0	0.027673692
148	0x3e14cb2a	0.14530626
149	0x3e898d44	0.2686559
150	0xbe2b74b3	-0.16743736
151	0xbe4490a5	-0.19195803
152	0x3dbb483b	0.09144636
153	0x3da34c24	0.07973507
154	0xbd32c14a	-0.043641366
155	0xbddc1868	-0.107468426
156	0x3dc012db	0.093785964
157	0xbd8be52c	-0.068308204
158	0xbe7b77eb	-0.24557464
159	0x3ea3d9fb	0.32002243
160	0xbd8f9579	-0.070109315
161	0x3e09bdfc	0.1345138
162	0x3c718e14	0.014743347
163	0xbe0af196	-0.1356872
164	0x3e89c457	0.26907608
165	0xbe3afd69	-0.18260731
166	0x3dd6e10b	0.10492142
167	0xbe17ef22	-0.14837316
168	0xbbb2519b	-0.005441857
169	0x3dd5af72	0.10433854
170	0x3d7c7096	0.061630808
171	0x3df037ad	0.11729369
172	0x3df63064	0.120209485
173	0xbdc5b64e	-0.096539125
174	0x3daba38c	0.083808035
175	0xbdf61987	-0.12016588
176	0xbc23e059	-0.010002219
177	0xbe06de14	-0.13170654
178	0x3e659a2a	0.2242209
179	0x3e61eef3	0.22063808
180	0xbe0bd4ee	-0.13655445
181	0xbdbad693	-0.09122958
182	0x3e27fdd4	0.16405421
183	0xbe74f799	-0.23922576
184	0x3eaa489b	0.3325852
185	0xbdc13814	-0.09434524
186	0xbe06ffa1	-0.13183452
187	0x3de57c54	0.11205354
188	0xbbd51f78	-0.0065039955
189	0x3c2dc439	0.010605865
190	0xbeb4a839	-0.35284594
191	0x3e10677b	0.14101975

linear5.bias f4 [6]
0	0xbef903ca	-0.48635703
1	0xbe0a03da	-0.13478032
2	0x3d72744b	0.059192937
3	0xbdd2e423	-0.1029742
4	0x3cc24c16	0.023717921
5	0xbd425588	-0.04744485
